AHiddenThreeBias.npy (npy, 1152 bytes, 1 tensors)

array f8 [1, 128]
1.174756688957342 0.3827001881375664 0.040031239882027676 0.37071943756973685 0.542670825784042 1.0585401240604062 1.1640131363263546 1.176444300004634
0.49056701591783014 0.8570741532840255 0.8772711169718812 -0.4115266671291206 0.3970447246711671 -0.8341069997273415 1.1779429538291493 1.250489493258623
-0.25565272999149413 1.0625225542636225 1.1922155261834604 0.6698503394710689 1.0663915597757279 0.9768187975953275 0.801619245955557 -0.1892084074652783
0.9654568343842224 1.1237659859312517 0.4489302303903607 0.13394794909449345 0.7957758023093744 0.31146495534031793 0.14053520702358502 1.4787502529048875
0.4188297322151114 0.3460843383409164 1.107489743080298 -0.040603355494942435 0.15000934640760558 0.48662275218180207 0.5087123284178416 0.5399069405785117
0.7336505846429718 0.26244307871135225 -0.25251186376287993 0.7796304422177842 0.3500344587230986 -0.014777151237899296 -0.638701534800669 1.1291778938680666
0.5940217383600349 0.8558008599339797 0.5079680016612488 -0.5477054935559923 0.5669739813052758 0.7055367870167365 -0.26550000697412796 0.33703879528101655
0.5819120161923389 1.114092882390317 0.4457628474663688 1.2123923017161815 -0.10567737269619898 0.28118590528580384 0.10834806869406838 -0.40801167227365637
0.03536765721086199 0.16571768345768625 0.1426126984624503 0.609045107420658 0.31396077371579545 0.9608920737499859 1.5875454921529473 1.0375791096824172
0.25173892637784756 0.3277531097730922 0.29572616107592675 0.5848777964693254 0.4872571579524453 0.9962393836214991 0.4780331927034441 1.0138805170602465
0.22760620880429625 0.3279112059341981 0.9205177671274117 -0.04906110222260998 0.6713743493377905 0.22544802917937606 0.7230119280859839 0.8947771543357369
0.9293211964234566 -0.5616711339043491 0.4729142279409486 0.3599330509534142 0.7122161621095779 1.0725173856147858 1.0136740845904861 -0.5833981548945005
-0.45943606613943694 0.8429238241414281 1.3741018365565845 0.28691371298675494 0.8193870887758152 0.14796778861647272 0.19470062600720617 -0.05008390407038608
0.5064460906582487 0.7380725442890265 0.02852733271936395 0.4791551502055951 -0.5994426569315785 0.5358356152787559 0.4145031415913509 0.9646790670336189
-0.06076208465073227 1.1210482749908095 1.2656618774666537 -0.40422258575303727 -0.06303726587830409 -0.21023787545544342 0.019692410327171707 0.9926103851548297
-0.05292907633150249 0.8005311189083739 -0.48947427548421385 -0.3912129919743642 -0.2914663888351011 -0.370000986147283 -0.08919497116449453 0.1201900424320026
00000000: b343 7dab cdcb f23f 4b54 0eee 287e d83f
00000010: d928 3984 f97e a43f 4ba0 1605 deb9 d73f
00000020: 768b 2735 8f5d e13f dc7d e5c4 c7ef f03f
00000030: 652d 0a3d cc9f f23f 465e 2142 b7d2 f23f
00000040: d041 7732 7365 df3f c941 53c6 266d eb3f
00000050: eed3 a3e0 9a12 ec3f c717 30f2 7356 dabf
00000060: 65c4 e046 2e69 d93f 1332 a629 01b1 eabf
00000070: 52ff f3b5 dad8 f23f 2f99 5845 0102 f43f
00000080: dc94 9c44 9d5c d0bf be31 5da6 1700 f13f
00000090: c0dc 6b96 5013 f33f 84c4 a7fa 696f e53f
000000a0: 9279 9f98 f00f f13f 7a47 b97e 1942 ef3f
000000b0: 4125 a767 dda6 e93f c386 1829 fb37 c8bf
000000c0: 5528 2cbb 05e5 ee3f 27e9 de0a f2fa f13f
000000d0: 0d97 6ddc 45bb dc3f 5712 5dd6 3425 c13f
000000e0: d8bd bbd0 fe76 e93f 605a 42b5 0aef d33f
000000f0: 682b 0dc3 0efd c13f fed9 7206 f6a8 f73f
00000100: b134 9d38 1bce da3f 0f40 b5ec 3e26 d63f
00000110: 14f7 322a 47b8 f13f d1d2 ea87 f6c9 a4bf
00000120: c11e 759a 8133 c33f 0410 87c1 d324 df3f
00000130: 720d b413 5f47 e03f 4461 95eb ea46 e13f
00000140: 7573 77ca 107a e73f af1d 080e decb d03f
00000150: 3eab 2d85 2729 d0bf 2853 898a bbf2 e83f
00000160: d014 2cee f666 d63f 5ecc 5baa 7b43 8ebf
00000170: d2f6 7b33 3e70 e4bf da78 d8d6 1c11 f23f
00000180: 47d2 6be0 3902 e33f 8ac3 297c b862 eb3f
00000190: cf95 511c 4641 e03f 6933 d5ab cd86 e1bf
000001a0: 4d73 6c9e a624 e23f df93 4be2 c193 e63f
000001b0: 6baa c2bd f3fd d0bf ecc5 cd2a 0b92 d53f
000001c0: af41 d6f2 059f e23f 212a e90e 53d3 f13f
000001d0: f7f3 e8e4 6087 dc3f cdb0 5c78 f565 f33f
000001e0: ec49 a81b ac0d bbbf 971d d32a f3fe d13f
000001f0: 7433 a0f3 b2bc bb3f cf4d 33fd dc1c dabf
00000200: b013 1da6 b51b a23f 0dea 68af 3c36 c53f
00000210: 01fd f105 2241 c23f 1623 452a 4c7d e33f
00000220: 4484 d5ed ee17 d43f e7bc f7bb a0bf ee3f
00000230: 9c58 1b1a 9666 f93f 9994 718d ec99 f03f
00000240: 8c12 fb95 7d1c d03f 8dd0 e82d e8f9 d43f
00000250: 8c22 996b 2ded d23f e5c0 ffa3 51b7 e23f
00000260: 3e73 89a5 382f df3f 7887 746a 31e1 ef3f
00000270: 9d14 4488 1898 de3f 8c34 edc6 da38 f03f
00000280: ff2a 9743 3322 cd3f e2ac 5e48 7ffc d43f
00000290: a95f 26ad e174 ed3f 8488 1a6b 891e a9bf
000002a0: 4dee 380f e67b e53f 16f4 2224 7bdb cc3f
000002b0: 1ae9 37e9 e922 e73f d38e e2b2 03a2 ec3f
000002c0: 6dc9 43ce ffbc ed3f cd3e e7bd 35f9 e1bf
000002d0: 1872 b409 3a44 de3f e80a a6a2 2409 d73f
000002e0: 482f 7e8c 79ca e63f f8b5 79fd 0729 f13f
000002f0: eae6 2151 0238 f03f 2732 7a9b 32ab e2bf
00000300: 5bfe aa87 6667 ddbf 329d 3662 3bf9 ea3f
00000310: 2425 1635 52fc f53f ac54 8355 cb5c d23f
00000320: 1ad1 a145 6b38 ea3f 770e 7cc6 9bf0 c23f
00000330: 4018 9b3a f3eb c83f 4d9d 13f4 98a4 a9bf
00000340: 2b0e 926e ce34 e03f 0b80 f94f 4a9e e73f
00000350: 6980 49e4 4436 9d3f b1f3 f55c 7aaa de3f
00000360: ba26 eb5d a22e e3bf fbef 74bb 9025 e13f
00000370: cf57 4e2f 3887 da3f 2872 81a2 a6de ee3f
00000380: 8cc7 d23c 351c afbf f329 e550 d0ef f13f
00000390: 3836 38ab 2640 f43f 5449 8768 c8de d9bf
000003a0: 1367 60d3 3523 b0bf 5e17 bb1f 13e9 cabf
000003b0: 5aa5 5649 3f2a 943f 5f1e bdda 76c3 ef3f
000003c0: 65dc b317 8519 abbf 3e89 e46f f39d e93f
000003d0: 1408 5ce9 8b53 dfbf 8e36 9337 a209 d9bf
000003e0: c684 fba3 62a7 d2bf 8f61 bf9d 18ae d7bf
000003f0: bb81 1e4c 7bd5 b6bf b0e0 8c4d c6c4 be3f
