AHiddenTwoBias.npy (npy, 2176 bytes, 1 tensors)

array f8 [1, 256]
1.235976575745646 1.1356657481985195 -0.30126034307473276 0.21876713282778076 -0.21510465526558956 -0.030807094793375955 0.6913257619561436 0.4220544681301477
0.1445675298362628 -0.5919294894726264 0.45332940320395976 0.9953093696394832 1.1529200908103483 -0.2499022760942018 0.0943486775601322 -0.11704133187618988
0.7667748030786534 0.2823403035719712 1.367421167142239 0.772043844389059 0.8135327263728139 1.0900893365152295 -0.20616573786616377 1.0048996958642658
0.4662473714695226 -0.35865534855637254 -0.15054532178546268 0.23123500184145496 0.6234421167598606 1.4687049572467035 0.14245821645856027 0.4841106398036874
1.3385945370425534 0.9616295051491681 -0.15377930535991596 0.3067576514950799 -0.021702443942282067 0.44591907613443826 0.29153363352107464 0.12354843220176928
-0.05426375680327232 0.48327219272231436 -0.1961851268170006 0.8397174808473388 0.05761815802255049 0.44573003145751916 0.4924081174022393 1.099638534556602
1.2998220201436703 0.143440276502707 0.1547272156674432 0.2140735442351982 -0.22693554517052583 -0.1298094342596667 1.1044466519593217 -0.28264557161458226
-0.0917991145231046 1.0869674128403475 0.21035604724565066 0.2550680414619882 -0.04697925201366752 0.789448127468389 0.44353910036242716 0.06933924891752906
0.4670370292408022 -0.22067362426256276 0.15864265525291257 -0.03482612419941765 0.58287877597875 0.17055353641749105 -0.02420144517935745 1.1625384586779826
-0.08156373955866292 0.585471003925128 0.7487215966474112 0.3546275760674973 0.4108888857464518 0.8811826441307363 0.5564553054032861 0.05255532872236639
0.2635936274201555 0.35602788527301465 1.0795888800584432 -0.10719330089121334 0.2672208393656926 1.0381153216637464 0.7032780514320683 0.8430769830492925
-0.09720952874488015 0.6981319762280189 0.555525027241206 0.40991070104059796 -0.3597900483965102 1.0604196307617724 0.4480580976299498 0.5058361303199985
0.6837468061647521 0.873838754861873 0.1844403731800783 0.48703125603215885 0.8683004622565836 1.2613619146379014 1.1132940669603182 0.5674481773531515
0.1274946450932157 -0.25550304738023405 -0.16341101703703212 0.2681238394042424 0.32655566866481145 0.06511415311825855 -0.5035953747221846 -0.06043711180002969
0.9706538301219306 0.43060829152780455 0.803502762447842 0.215375755296736 0.14676869321505015 -0.036413119037253416 0.4811891836648282 0.44988924221724297
1.313565290699302 0.5741826060971821 0.763339753337546 0.3357959938518925 0.8778357332733598 -0.2238465186430096 0.24977326782236703 0.7088340800563592
0.664074757939337 1.0320836096006594 -0.13312351662416566 0.8990647478117484 0.5986852352632125 0.7973286749909266 0.9421705906902513 -0.2541609077095078
-0.012907367477243012 0.2937509866446317 0.05675535514251867 0.5775359591889214 1.515102735306264 -0.08412475327630428 0.004363392688728579 0.9388390220438758
1.1026327438194818 -0.19071270088352835 0.5399898742944242 0.2201232874127257 1.0301172842289377 0.7286493495260686 1.3820957880674873 0.27845135980031244
0.4462750624673232 -0.18626393327744498 0.6715788203436778 0.06443687972537536 0.3294785117716285 1.1466563924475082 -0.21750334160012735 0.5890775040346032
-0.061369827327749 0.05185354788977052 0.40617208058919335 1.0737026077913576 0.31503700282141894 0.024027988230839497 0.25986582251849766 1.2472951479049252
-0.03898363995256747 0.9495565209382336 -0.2060583339406404 0.6391816987935447 0.39479816219719144 0.63815106363965 0.4092149909573513 0.1279327260540622
-0.22748072887514845 0.22524408566913132 -0.5651099436280402 0.30401424313687053 0.8039549422748042 0.39124414683661124 -0.027259113232172134 -0.2781148911573193
0.3629695439562163 1.1683529957162275 1.1356749903631582 0.3607892404440048 1.2401383376954545 1.0972414195879576 0.7910055959780201 0.8632325219074609
0.3866351376691317 0.7971011235762276 0.17114685217449432 1.2861836602416645 0.24952459276393749 -0.1460489335119885 -0.4166540531233555 0.37742918936583997
0.874778546967098 -0.35171028156720274 0.6794227621942543 0.4479422246117743 0.5447089256574433 0.5781209269663089 -0.2895342490180548 -0.3752001714503755
0.049290274270839846 0.23699103811274363 1.091725479286109 0.7227604790983997 0.9895810436836149 0.5181343752363967 0.9916521048043148 1.2367047270494973
0.6486445316288901 0.8617582739502362 0.6673958061371891 1.1628887845734435 0.25124791646792566 0.6999631310777347 0.6455637372827749 -0.24474821032253813
0.11653818129814655 0.4883629512652789 1.307183015989392 0.5252924379274801 1.2934498512790664 0.34799310219159085 0.2526082458711577 0.4347538024479962
0.06781795108925755 0.41366720599380563 0.012298117632693933 0.45282218740463387 1.0713696659260001 0.4461829074496804 0.11360110196866066 0.3617251777991712
-0.046967182826469826 0.7710348489624123 0.8703152163209992 0.6548308196056916 -0.3277710190688535 -0.2779104135687324 0.6554556196663435 0.2913551166053283
-0.036809626608919545 0.4082420794072628 0.18593959290085627 0.7427196248708061 0.629199724417637 0.9247460359899868 0.08213170975398403 0.6367699819093727
00000000: a131 b75f 8fc6 f33f 4033 fbd8 af2b f23f
00000010: 299d 4576 d947 d3bf 4aae 77b8 8f00 cc3f
00000020: c1a1 caa1 8c88 cbbf e041 7d22 e58b 9fbf
00000030: 417c 4f34 571f e63f 68fa 6fbe f002 db3f
00000040: 92e9 5a56 3081 c23f 4055 da1c 16f1 e2bf
00000050: 8ae0 4454 5903 dd3f 6820 0009 93d9 ef3f
00000060: a3e8 4e56 5c72 f23f b0a1 823b ccfc cfbf
00000070: 67a7 8a24 3c27 b83f b542 b0b4 6bf6 bdbf
00000080: 3ad4 d34f 6b89 e83f 09cc 8b10 dd11 d23f
00000090: bcbe 8b04 f5e0 f53f f754 d74a 95b4 e83f
000000a0: 09e7 bfc8 7508 ea3f ebd1 2084 0171 f13f
000000b0: d46e d88e a363 cabf 38f5 17b4 1114 f03f
000000c0: 1daf 1337 ffd6 dd3f 4b72 2590 35f4 d6bf
000000d0: a932 d1b0 1145 c3bf 04be 4cc9 1b99 cd3f
000000e0: fbd7 cde1 3cf3 e33f 0e90 edc4 d07f f73f
000000f0: 6c35 5e22 123c c23f ec8e 6631 abfb de3f
00000100: 813b f31a e26a f53f b87f 6f3d abc5 ee3f
00000110: 9a45 a94f 0aaf c3bf 4906 3ed8 eaa1 d33f
00000120: a6c8 e65b 2a39 96bf 903c 2a2a f089 dc3f
00000130: 5a0d 6aaf 7ca8 d23f 1257 c7bb dea0 bf3f
00000140: 8e03 a889 75c8 abbf 46bf b37d eeed de3f
00000150: 2b00 d21f 981c c9bf 6dcd c331 f7de ea3f
00000160: 98a8 b990 2080 ad3f 4b20 fd40 d786 dc3f
00000170: 51c3 2156 9d83 df3f b778 7593 1e98 f13f
00000180: 1734 b22c 12cc f43f c110 4140 405c c23f
00000190: 1de1 8bf5 19ce c33f 00e9 b60b c366 cb3f
000001a0: e456 6754 390c cdbf 8fc3 6d75 989d c0bf
000001b0: c178 a540 d0ab f13f 2668 9c73 dd16 d2bf
000001c0: b6b1 ad92 2580 b7bf ed78 1ff1 3764 f13f
000001d0: 96cb b76b f2ec ca3f 7160 15e8 0853 d03f
000001e0: 357e fa1d aa0d a8bf 79af 2bb8 2843 e93f
000001f0: e072 a3d2 f162 dc3f df13 6e8e 37c0 b13f
00000200: 310e a747 efe3 dd3f 7414 a687 083f ccbf
00000210: 19eb 070c 674e c43f fe42 f7d0 bad4 a1bf
00000220: 4b8f 0b64 f1a6 e23f a8ac 90c2 b2d4 c53f
00000230: 6dbf 3e7e 43c8 98bf b1d3 45ed c199 f23f
00000240: a8a4 f179 5ce1 b4bf b9ab d3af 2dbc e23f
00000250: e81a 6dfe 86f5 e73f cc0e 5edc 37b2 d63f
00000260: 7b89 a4e5 004c da3f a904 cbf1 a532 ec3f
00000270: de91 4c5b 7bce e13f e6a9 2f34 88e8 aa3f
00000280: 6707 4dce b7de d03f 7a8b ed2e 29c9 d63f
00000290: d89e 4ffd fe45 f13f 9e94 ad29 0571 bbbf
000002a0: 11a9 786f 251a d13f 635b c0cf 1e9c f03f
000002b0: 9fa6 dcf8 4081 e63f 37a0 c694 7cfa ea3f
000002c0: fc9e d142 b9e2 b8bf 3c1e c6de 1857 e63f
000002d0: 2089 036c dcc6 e13f bffc cf17 fa3b da3f
000002e0: 6083 d2d6 cc06 d7bf 0588 2293 7af7 f03f
000002f0: bdd4 01df fbac dc3f be81 9b40 cf2f e03f
00000300: 211b 67fb 40e1 e53f cb7d 43b1 7cf6 eb3f
00000310: 9f6b 6ffd bd9b c73f 5d6d 3225 852b df3f
00000320: 77cc 0f0d 1ec9 eb3f bca2 bcd4 892e f43f
00000330: 71ce 8670 0dd0 f13f d002 7d14 8928 e23f
00000340: 1f95 8b99 be51 c03f 41b1 2174 295a d0bf
00000350: 9d75 fdf6 a6ea c4bf 333a 61e4 f028 d13f
00000360: 2048 4fbf 49e6 d43f ea4f 2636 52ab b03f
00000370: 2028 1b0c 741d e0bf 57a9 4af5 9cf1 aebf
00000380: ef8b 039f 980f ef3f 0ae5 5f14 168f db3f
00000390: 43b1 de6c 4bb6 e93f 5be6 acc8 6e91 cb3f
000003a0: d4b7 b708 51c9 c23f 801a d286 bda4 a2bf
000003b0: 46e1 c1b7 cdcb de3f 494c 893f fcca dc3f
000003c0: 826d cb09 5d04 f53f 83d2 6333 b45f e23f
000003d0: 7549 8a7d 476d e83f 4230 ee7a ae7d d53f
000003e0: 936a b5f6 3a17 ec3f 4795 72b2 00a7 ccbf
000003f0: 9a26 5b08 92f8 cf3f df3b 04cf c4ae e63f
00000400: ad5a eeb4 1940 e53f 368f 5f1a 6a83 f03f
00000410: d459 1dff 300a c1bf 76d0 1a6f 23c5 ec3f
00000420: cbb6 41f0 6d28 e33f 29f8 e76c b783 e93f
00000430: 7090 48f0 4226 ee3f 392d a21c 2c44 d0bf
00000440: d8a6 8989 2d6f 8abf 7b9c 33f0 d0cc d23f
00000450: e882 6bb4 090f ad3f 815f 1fb1 2c7b e23f
00000460: 5e87 a35d dc3d f83f 6e15 1b28 3389 b5bf
00000470: 2df5 5c4e 59df 713f e062 fc21 f80a ee3f
00000480: 3641 633b 62a4 f13f b900 9d16 4669 c8bf
00000490: a480 48d8 9847 e13f 0049 43f8 ff2c cc3f
000004a0: 07ec ec42 5c7b f03f 9aea ce70 1851 e73f
000004b0: fc06 1b79 101d f63f dc9e f7a6 25d2 d13f
000004c0: 1652 9447 c58f dc3f 01ec ec1e 7fd7 c7bf
000004d0: d1fe c1dd 927d e53f 5fa7 1373 ef7e b03f
000004e0: 2fcf 320a 2d16 d53f 73fb 945f b458 f23f
000004f0: dabc 7845 26d7 cbbf ea69 d410 b9d9 e23f
00000500: 43ee aab2 dd6b afbf 167c bc58 8c8c aa3f
00000510: 7972 ab2e b9fe d93f 3080 21c9 e22d f13f
00000520: 7176 09f6 9029 d43f db7d 8ffe ca9a 983f
00000530: 662a 4442 a4a1 d03f d160 cbc1 ebf4 f33f
00000540: 0ec3 59e5 a9f5 a3bf 9b43 645b c462 ee3f
00000550: 2bf1 ab96 1e60 cabf d1a3 902d 2d74 e43f
00000560: 101a ca82 5f44 d93f 5bad 87c7 bb6b e43f
00000570: f176 cc12 9430 da3f f2c2 3e7d 1960 c03f
00000580: bb97 7ea9 161e cdbf df7d c856 ccd4 cc3f
00000590: d8db d072 6115 e2bf 96a0 f227 f874 d33f
000005a0: 2ae4 10b7 ffb9 e93f e889 dae3 240a d93f
000005b0: 258b 661f d0e9 9bbf 4548 8366 a2cc d1bf
000005c0: 5a1a 2f9c e43a d73f a58e 2ce9 92b1 f23f
000005d0: 07eb e789 b92b f23f e129 1dc1 2b17 d73f
000005e0: 3baf 2e4c 9bd7 f33f 7826 cf04 4d8e f13f
000005f0: f9b6 b5f7 ea4f e93f edf4 4dcf 999f eb3f
00000600: 087f f14d a1be d83f 0dac 2b37 da81 e93f
00000610: f08e 73da 23e8 c53f 4d33 5651 3594 f43f
00000620: 9d02 bcfe 6bf0 cf3f 8e5b 8640 bbb1 c2bf
00000630: 3b48 fac2 75aa dabf e573 38c2 cc27 d83f
00000640: 2dea 4e94 2ffe eb3f aae0 3fd7 6b82 d6bf
00000650: aa08 f9cd d4bd e53f a71f 4ddd 15ab dc3f
00000660: 6a37 b169 416e e13f 1583 4e75 f77f e23f
00000670: 90af a6a8 ba87 d2bf 254f 7594 4703 d8bf
00000680: fc1c 0228 933c a93f 5ad5 11eb b855 ce3f
00000690: 75e6 db22 b577 f13f 9434 9295 da20 e73f
000006a0: 059b 6bdd a5aa ef3f e25b 928a 8e94 e03f
000006b0: 709c e431 9dbb ef3f 77c7 57e5 8ac9 f33f
000006c0: 0769 422d b2c1 e43f bb8e 7516 8693 eb3f
000006d0: d918 1b73 4e5b e53f d10c 2a45 319b f23f
000006e0: 8ebe 1a24 7214 d03f e74e 8c14 1966 e63f
000006f0: 249e 6348 75a8 e43f 947f 8bcb e853 cfbf
00000700: 022e 693d 72d5 bd3f 67cb 10ae 5641 df3f
00000710: 33fa f8bc 38ea f43f 2682 3716 32cf e03f
00000720: 8b27 a478 f8b1 f43f be5f 49dc 8445 d63f
00000730: f2db adc6 bb2a d03f b8d9 d49c 01d3 db3f
00000740: 2d95 026a 845c b13f 25f3 4a04 8679 da3f
00000750: 763b 4768 c12f 893f e896 73e9 09fb dc3f
00000760: 0342 d184 5424 f13f e5f4 e1c0 428e dc3f
00000770: 9eb5 be39 f614 bd3f e761 325c 8126 d73f
00000780: 6f2b 7324 150c a8bf e5d5 8b46 51ac e83f
00000790: 59ea e94b 9fd9 eb3f 7ad1 53c3 5ff4 e43f
000007a0: 618c de4b 33fa d4bf efb6 5fc2 48c9 d1bf
000007b0: 9448 4e10 7ef9 e43f d0e5 55ee 8fa5 d23f
000007c0: 2533 ed1c b6d8 a2bf 45ef f962 a320 da3f
000007d0: b036 455b decc c73f 2a5c 5df2 5bc4 e73f
000007e0: b2d4 e075 6722 e43f 20d8 b5ff 8497 ed3f
000007f0: 03a1 5b6f 9506 b53f 3102 ec70 6b60 e43f
