AHiddenOneBias.npy (npy, 4224 bytes, 1 tensors)

array f8 [1, 512]
000000 07 4f 38 8e 9e d8 d4 3f 70 32 30 11 37 ca d6 bf
       0.3257213963381535 -0.3560922305921741
000010 0a 09 fc ec cf 95 f2 3f e1 6a 67 47 db 04 e7 3f
       1.161575246544603 0.7193428415879134
000020 8c 74 c3 cc 39 e2 db bf 4a d9 32 f7 f7 67 d6 3f
       -0.4356827258723761 0.3500957407044508
000030 19 4a 71 bd 85 7e c1 3f be a8 ec bb 88 88 e2 3f
       0.13667365789531585 0.5791667623900805
000040 ae 9a a0 4f bc 8d cc 3f 1f 3a 92 ca a8 05 9a 3f
       0.22307542694143961 0.025412213672604374
000050 2a 1e ea 8f 3c aa b6 bf 12 d9 83 63 83 fc d1 3f
       -0.08853510392702249 0.28103718488945717
000060 5e f0 84 18 c9 61 98 3f 29 ec 76 81 f1 6c d1 3f
       0.023810522195376264 0.27227437632581314
000070 28 7f 4b 03 c6 22 e2 3f 69 59 60 a7 00 2a ec bf
       0.5667448105195705 -0.880127264887773
000080 8b 64 f6 be f1 0a da 3f b9 06 56 8d 66 9d f5 3f
       0.40691798828772424 1.3509278794230524
000090 8d 35 02 ba 1a 47 fd 3f bf e4 19 2f 81 d2 a9 bf
       1.82985947284337 -0.05043414783444566
0000a0 4b b5 a8 e5 5a 94 f4 3f 5a 1e 6b 98 68 b9 d9 3f
       1.286219498734982 0.40194144138920296
0000b0 33 68 cd 76 11 1a d4 bf 9a 8c 0d b4 1e b6 c5 bf
       -0.31409107782167495 -0.16962035934111414
0000c0 bd 33 20 b2 f3 e4 cf 3f fc 71 45 75 5e 45 ec 3f
       0.24917455861614526 0.8834678926901343
0000d0 d8 0e 9f ed 62 a6 dd 3f f6 0d b7 b5 78 67 c3 3f
       0.4632804222603517 0.15159520027928836
0000e0 2e 62 78 fe d2 cd d3 3f d0 60 51 63 d9 4b e3 3f
       0.30943751192674795 0.603008932094804
0000f0 38 9b 00 e3 36 5a d0 bf 74 cf 67 97 cd 84 d9 3f
       -0.2555062500782017 0.3987306574410845
000100 25 99 7e d0 7a 92 f0 3f 19 a3 56 5c 16 f1 7e 3f
       1.0357616562192302 0.007554137560341422
000110 f8 fa bc ff 77 54 df bf 94 44 f5 aa bd dd e0 3f
       -0.4895305631106761 0.5270679797196345
000120 1a a7 3e 16 20 25 c3 bf 69 3c 5d 86 cc 87 ee 3f
       -0.14957047544640362 0.9540770172406045
000130 10 6b 03 56 09 29 e0 bf dc 71 ca 60 35 83 ee bf
       -0.5050093345592774 -0.9535166635937986
000140 47 3b 27 1d bc cc cc bf ea 8a 5e 43 ab 99 e9 3f
       -0.22499801085947466 0.8000084224516659
000150 ee 10 31 27 b8 9e bb bf 41 b2 58 c2 7a d6 e7 3f
       -0.10789061505153416 0.7449315830068103
000160 45 9b d9 4d c0 85 b5 3f 1e d6 3a db 22 0b f4 3f
       0.08407213116298091 1.2527187884965154
000170 df a9 14 09 60 69 9a 3f e9 1d 52 79 0a 1d d2 bf
       0.025792599252932532 -0.28302251670581186
000180 8e 68 e3 e5 06 9f ea 3f ad ea 2e 74 b7 bf ee 3f
       0.8319124689108024 0.9609029072956524
000190 98 dc 68 b8 49 a6 c7 3f c0 e0 b6 88 80 9f a2 bf
       0.18476220611930638 -0.0363731543433814
0001a0 70 bb 29 0e f8 d6 c3 3f cd 77 bb c2 19 49 a7 bf
       0.154997832217727 -0.04547958852866394
0001b0 1c 96 92 69 ed b9 bc bf 0f c9 da de ae 2e e5 3f
       -0.11221202685791137 0.6619486191396237
0001c0 0e 89 01 ab b5 3a ef 3f 81 58 c2 d7 d8 b6 9f 3f
       0.9759167041741266 0.030970943611997818
0001d0 16 0e 50 88 78 56 af bf b8 40 2a 26 b4 96 b1 3f
       -0.0612065950772626 0.06870580608142773
0001e0 fa f7 fc 27 36 85 d2 bf 40 20 d8 0f ec 29 d3 3f
       -0.2893805876263965 0.2994337229470183
0001f0 f4 2e 64 a6 43 88 d6 bf ab 8d f1 2f 12 51 bf 3f
       -0.3520669102588123 0.12233079596040024
000200 d7 96 23 5c 0d 49 b9 bf 60 33 20 a4 78 fd ec 3f
       -0.098770937914732 0.9059413152295797
000210 a6 14 98 2e c1 32 f8 3f a6 2e f8 54 76 76 e9 3f
       1.512391263969485 0.7957107219276238
000220 7c e2 69 29 5f 22 d6 3f cf 6f 6b 14 59 95 be bf
       0.3458478836469465 -0.11946636913802354
000230 ed ad 06 a3 24 16 ef bf 42 5a ee a4 00 10 d0 3f
       -0.9714530166724537 0.25097671610402383
000240 06 7e 38 8f de 53 c4 3f 5f 67 8f 0f a0 e3 db 3f
       0.15880949013897822 0.43576814193294483
000250 5b 97 6c db 0f 43 fa 3f 79 4b f8 ed ad ae e8 3f
       1.6413725444085319 0.7713231704568521
000260 79 13 6e c2 d4 29 db bf 66 a8 99 aa 5b 0a b2 bf
       -0.4244281672220534 -0.07047055163425994
000270 c2 eb 3e e6 dd f5 e4 3f 57 e8 f4 a6 81 95 e7 3f
       0.6550130364406572 0.7370002995369401
000280 61 1c c3 ee 4f f8 d6 3f f9 51 d4 2d 2c 98 79 bf
       0.35890577618233094 -0.006248638700772074
000290 d8 3d e7 ce 59 d7 f0 3f 2a e8 6f a3 d0 d7 ae bf
       1.0525758821639695 -0.06024028773386221
0002a0 50 1c e9 07 10 d8 cc 3f ca b3 86 f5 a4 ab d6 3f
       0.22534370790728753 0.35422634102979755
0002b0 a6 2e b6 a2 f6 30 d9 bf fe 56 09 b9 f3 1a e0 3f
       -0.39361349000749113 0.503290044211752
0002c0 48 83 55 ed c0 d1 e1 3f f7 36 b4 2e 1e c8 f3 3f
       0.556854690115963 1.236356909215315
0002d0 77 38 e4 0e 8f a5 c6 bf a5 3f 19 d3 a1 b9 e0 3f
       -0.17692745425341957 0.522660171796805
0002e0 a7 01 29 c1 53 a2 a7 3f 41 2a 19 64 91 24 f8 3f
       0.04616033299362537 1.5089277181711085
0002f0 da 5b 77 79 d2 38 cc 3f 96 07 a1 c5 bb 97 cb 3f
       0.2204840748879338 0.2155680384622058
000300 03 ff ec 1a 75 66 e4 3f 00 d1 16 48 db 29 ec 3f
       0.6375070119756575 0.8801094444266084
000310 a0 7a b7 2f 0d 45 f2 3f e5 bb 1c 98 ba 4a e4 3f
       1.1418582786497282 0.6341221781675556
000320 9e 4f 3a cc a8 6e d5 3f 1e 81 6c 83 e9 9a e8 bf
       0.3348791117107285 -0.768910175978849
000330 5c 3a e3 43 82 22 d4 3f aa cb 1b 13 37 40 eb 3f
       0.31460625295304623 0.8515887616361983
000340 15 1f ea 50 b8 fd e8 3f 5d a0 4a 6e 61 ff c1 bf
       0.7809716778146788 -0.1406060970814477
000350 ae 9d df 0a 0f 93 d7 bf 5e ad 61 c2 6c bb f2 3f
       -0.3683507543741723 1.1707580178288803
000360 55 37 3d 84 6c 28 c3 bf b5 6b ea 94 31 c5 c3 3f
       -0.14967113930691292 0.15445537349009233
000370 d1 d1 ad 8b 5d c1 d7 3f af 2c 6b bf cd 29 ed bf
       0.3711770881702963 -0.9113529909749526
000380 64 1b dd d2 e0 e7 cd bf fb 7e dc 0c ae 00 e4 3f
       -0.233638861618796 0.6250829936215888
000390 9e 46 d1 eb c7 37 eb 3f 4b 49 64 5c 4c d1 f2 3f
       0.8505591970262747 1.176098214059112
0003a0 83 3e a8 83 2b b5 c4 3f 80 e3 aa ed 2b 3a da bf
       0.1617788689477387 -0.4098005124065409
0003b0 a9 d1 ec 38 22 86 e8 3f 23 33 de 40 8e 48 c5 bf
       0.7663737403695922 -0.1662767235506176
0003c0 19 44 0a 84 4d e1 c1 3f 0d ac 0b 38 38 dc f9 3f
       0.1396881956793841 1.6162645520478265
0003d0 1f 52 17 c6 8f 7b f9 3f d4 0a 3b f2 66 d5 e2 3f
       1.5926664102490873 0.5885500651423521
0003e0 8c 05 25 26 0e 98 dc bf 9a 6d 76 9d d3 9d d3 3f
       -0.4467807171350493 0.3065079724999237
0003f0 a5 01 ee 38 1e 91 e5 bf 8c 25 1f 8d 27 50 df 3f
       -0.6739646064670991 0.4892672422543789
000400 8d a2 2b 6d 76 13 ed 3f 2a b8 86 36 ad 0a d9 3f
       0.9086258060679754 0.3912766487582099
000410 ec bc 27 74 e9 1b b0 bf 69 e0 12 03 1f eb e5 3f
       -0.06292590223141631 0.6849513111146851
000420 61 2a a6 4e 5d e0 ef 3f aa ee 05 bf 37 9e f4 bf
       0.996138242351048 -1.2886273824541754
000430 e5 25 92 0f ae 1a e3 3f cd bf 70 d7 fa 83 a6 bf
       0.5970068267935714 -0.04397567634475728
000440 a1 a1 8e 7e b6 1d fd 3f eb 7c 59 9d 08 2c e0 bf
       1.819754118312723 -0.5053752015336647
000450 d6 e4 60 60 25 70 dc bf 1b 6c 0c 25 25 ee d2 3f
       -0.44434484874689184 0.29578522317905404
000460 cb a1 69 b4 52 35 e4 3f c6 b2 48 93 1d 11 ed 3f
       0.6315091632541735 0.9083392979278748
000470 44 f5 4d 5a df 18 e5 3f 0a cd fd 2e 19 a7 e0 3f
       0.6592861903915623 0.5203977506447768
000480 28 9e 25 30 b3 48 f3 3f 28 26 57 cc a3 58 e9 3f
       1.205249012063982 0.7920702925704903
000490 34 80 44 2b 34 f3 dd 3f 46 91 ea bf e6 e5 da bf
       0.4679689810309384 -0.4202820657904066
0004a0 1f 69 81 b4 48 17 ef 3f 0a cf 52 3f 59 34 dc 3f
       0.9715922856806037 0.4406951063531187
0004b0 9a b0 f0 50 51 9c db bf 01 5e ed 20 bc 23 96 3f
       -0.43141587166133777 0.02162069273921752
0004c0 1d 4c 30 8b 10 76 c9 3f 23 7d 7c 6a ef a1 cf bf
       0.19891554638215406 -0.24712937068486793
0004d0 9a d8 65 df 24 df e0 3f ff 50 03 fa a8 37 b3 3f
       0.5272392619360915 0.07506805518943692
0004e0 6e 95 9d c9 da 46 de 3f 81 45 27 2e a1 a9 7e bf
       0.47307462395686783 -0.007485990152831135
0004f0 0e 78 32 34 f5 87 f1 3f 9b 36 d3 29 4e 67 c7 3f
       1.0956928290320351 0.1828401283477675
000500 db 4f 0c a6 2e fa bd bf 0a af bb bd b7 f7 f4 3f
       -0.11709872774036915 1.3104779635859267
000510 94 06 31 bf e0 09 f1 3f 25 da 77 70 d3 7e a2 bf
       1.0649116009157398 -0.036123855093979786
000520 e5 58 09 db 23 9e de 3f 4e e0 a8 91 48 94 f2 3f
       0.47840210333141747 1.1612020196753465
000530 d0 f7 1a 60 01 09 ef 3f a6 2d 76 0e e5 2c cc 3f
       0.9698492886598107 0.22012007909903025
000540 5b 10 bd 4c 37 4e b0 bf dc 1a 9d a0 35 b7 e8 3f
       -0.06369348166941917 0.7723644387231974
000550 fe 74 d9 2a 3c c7 ed 3f a4 1b 01 28 cb 3f e4 3f
       0.9305706822302964 0.6327873021444828
000560 09 ab fc ef be 15 d4 bf 41 e6 60 27 b0 97 f5 3f
       -0.31382726131657585 1.3495332277510814
000570 71 05 91 09 e7 b8 e9 3f 4f dc 5b ff cd 45 f7 3f
       0.8038211047025198 1.4545421576456368
000580 8c 1e 82 eb f5 41 bc bf 40 dc 15 35 92 a5 e1 bf
       -0.11038147926057656 -0.5514613186668456
000590 e5 fc 81 f9 8c 7f e8 3f e4 6c 49 e9 ec db e2 3f
       0.7655701516340768 0.5893463665373955
0005a0 06 98 c2 be c2 fc dd bf 00 95 b6 5f e2 be e6 3f
       -0.46855229023856315 0.7108013028525022
0005b0 bd 2d 25 bc 19 95 e1 3f f1 4b 28 fe 47 28 9f 3f
       0.5494507479392535 0.030427098166978032
0005c0 5c 38 91 e0 c6 c5 c2 bf 74 e5 50 98 c8 d7 f0 3f
       -0.14666067090223833 1.0526815366596027
0005d0 ec e7 30 69 1e 8a ec 3f aa b6 96 f2 95 fd e0 3f
       0.8918602041733243 0.5309552896557836
0005e0 7c 17 8f cf 8d b6 bc 3f b4 41 7f b8 7a 32 f1 3f
       0.11216055219037274 1.0748240668218445
0005f0 d2 35 45 7e 09 c7 a8 3f 17 76 e2 c3 a2 47 9e 3f
       0.04839353243242396 0.029570143895957992
000600 ea eb 30 21 24 23 c5 bf 4f 7e 0e 22 ef 31 e3 bf
       -0.16513492222460907 -0.5998454728286989
000610 8e ab 73 ff 26 3c f3 3f 90 f9 71 08 15 1f d0 3f
       1.2021856287562716 0.25189710449912983
000620 7a 21 9e 0b 7f 1c e7 3f eb 1a 69 d5 bc 98 e8 3f
       0.7222285487087412 0.7686447303938996
000630 d1 86 55 ca ec 26 dc 3f da 20 8f cd 53 a0 dc bf
       0.4398757911604721 -0.44728560518389104
000640 71 d2 c8 ab 08 42 fa 3f 77 cf 0b 9b 42 cb bc bf
       1.6411215505915175 -0.11247650418573395
000650 8f ce 88 29 ac 26 e1 bf 08 77 58 08 6b 76 ef 3f
       -0.535970765230063 0.9832053339957563
000660 5f 4d f8 48 f9 f9 f1 3f 7a 81 b9 51 ce 46 ee 3f
       1.1235287523639597 0.946143302553579
000670 45 85 91 ac db 9a ea 3f 92 6f e9 2a 61 a5 65 bf
       0.8314035768964138 -0.002642335682407856
000680 64 0b 2b dc a1 d3 ce 3f df 98 91 01 9f 34 f1 3f
       0.24083350420377336 1.0753469525603163
000690 76 f7 44 66 8c cb f3 3f 6d a2 3b 11 30 f1 d5 3f
       1.237194442262504 0.3428459327974796
0006a0 46 59 8a 53 f0 de ce 3f c8 0f 3b 5b 48 69 e2 3f
       0.2411785514747839 0.5753518850183292
0006b0 be b7 11 64 1c 83 e5 3f f0 df d9 b9 25 82 a1 bf
       0.6722547487713582 -0.03419607061090335
0006c0 af a2 b6 e3 91 c5 e0 3f ff 33 25 5b 94 41 dd 3f
       0.5241174170997364 0.45712765599165545
0006d0 37 ef ff ee 7f 09 e0 3f 1d eb 60 18 de 90 e5 3f
       0.5011596363033054 0.6739340282577789
0006e0 60 a2 85 b4 f3 a6 ea 3f 60 eb 88 8e c0 f4 f7 3f
       0.8328798795528876 1.4972539489524124
0006f0 4e 9e 1b a4 2b 22 b7 3f bd 04 99 0c 9b 73 f3 3f
       0.09036515003719467 1.215724038324239
000700 dd 92 fd 66 c4 9f b7 3f d3 e9 5f 02 c6 cf db 3f
       0.09228160395066305 0.4345564864339881
000710 95 61 a3 29 19 cf f8 3f 64 ff ce d1 5e fb d8 bf
       1.5505611063473215 -0.3903424309646566
000720 7c f4 b1 88 ee 69 d0 3f e7 8a f9 a0 a9 aa a1 bf
       0.2564655623353429 -0.03450517740272634
000730 d0 dd ce 2b 05 49 b8 bf 2a bc 9f 09 40 44 de bf
       -0.094864199824648 -0.4729156583770783
000740 ca a9 57 c7 16 87 ca 3f 30 b2 86 15 31 46 d6 3f
       0.2072475884772998 0.3480341634956714
000750 2e 51 9d 83 0a 7d dc 3f a1 69 91 a0 a9 f5 b9 bf
       0.4451319012926146 -0.10140476389043453
000760 74 24 09 71 b7 0c cc 3f 32 57 a5 69 db 4d c7 3f
       0.21913807887384318 0.1820635095452246
000770 ae ef 98 ea 98 d0 e4 bf ea 4e fb 21 7e a9 d7 bf
       -0.6504635412197695 -0.3697200137951159
000780 a6 ed 19 f3 a4 b2 a3 3f 56 78 43 ae ee 6b e3 3f
       0.03847232310814812 0.6069253352723176
000790 eb 98 7c 86 20 ab d9 bf b0 27 d9 3f 71 09 f6 3f
       -0.4010697663637887 1.3773052686760643
0007a0 03 4d e4 36 c8 f1 c9 3f de 7f e2 87 4a 51 f4 bf
       0.20269110374702146 -1.2698464687346056
0007b0 84 63 b8 60 8c 22 c0 bf bb 46 e0 3b 9c 95 e3 3f
       -0.12605433199567184 0.6120129746870683
0007c0 1a b2 ba 06 bc b3 e3 bf d8 6a 22 bc b5 ee c2 3f
       -0.6156902438575031 0.14790984808208552
0007d0 cf ba 52 48 80 d2 d2 3f 97 c9 93 99 50 c5 e5 3f
       0.29409796774681934 0.6803362845951594
0007e0 6f 2a fa 22 88 af ea bf 06 3f 2f 53 78 d8 eb 3f
       -0.8339272196911461 0.870174562902293
0007f0 a7 53 44 c5 66 41 b3 bf 34 de 11 54 1d aa c4 bf
       -0.07521669689260922 -0.16144148449869677
