AWeight4.npy (npy, 10368 bytes, 1 tensors)

array f8 [128, 10]
0	0x3fb8aeb106745fb6	0.09641558082182553
1	0xc00a7c5e6869f211	-3.3107269437152884
2	0xc0005c35c48c688b	-2.0450244288777575
3	0xc00d3c4e07b7bb7a	-3.654445705694738
4	0x3ff360e78234aecf	1.211158283821465
5	0xbff7036120ac31fe	-1.438325049998752
6	0x4001d98c3eeb4253	2.231224528841531
7	0x4008d3d1bca1d8dc	3.103427385033781
8	0x3fda22f1920aeb24	0.4083827902028807
9	0x400995222487c6cc	3.197819028276035
10	0xbff6ee585ed0e0f1	-1.4331897453067166
11	0xbff51257733a7041	-1.3169779301743036
12	0x3fe2c9e7ce728932	0.5871466667343042
13	0xbff58f920416d454	-1.347551361058568
14	0xc00c1526c685e859	-3.5103278646102294
15	0x3fd8d9e8b9b21746	0.38830011495916883
16	0x3ff9b8eb2bc5717d	1.6076461515250167
17	0xc004a1727fa2d116	-2.5788316699564673
18	0x4003fd039fa67a3f	2.498542067783347
19	0xbf8147947d543e29	-0.008437309336414138
20	0xbfd1bc1c80c901da	-0.27710640503576445
21	0x3ff88b1fbb46510e	1.533965808431336
22	0xbfd82cdc7e674256	-0.37773811668470125
23	0x3fbaa0505e6a622b	0.10400869660441774
24	0xbfe07ebf32179720	-0.5154720285761165
25	0x3ff576fa9e004982	1.3415476009291472
26	0xbfe2143800cad722	-0.5649681106067173
27	0xbff196b528eb2687	-1.0992938612347716
28	0x3ff6322f550b550a	1.3872521707574514
29	0xbfeb89c10402ba66	-0.8605656698544635
30	0xbfe719e17a838f8f	-0.7219092743730345
31	0xbff928c488a6c4c3	-1.5724530542322988
32	0x400205794cc32e5b	2.2526727673592126
33	0x400cf70998776dbb	3.620623770851777
34	0xbfd490266baa3b42	-0.32129822267681984
35	0x3fffaf19b9b202c3	1.9802491430020133
36	0xbfdf3d7f3c4c5df4	-0.4881284798479719
37	0xc00ad1c1657a1f87	-3.3524196555990247
38	0xbfe577eb4d3c058e	-0.6708885677800696
39	0xbff8b286050089d9	-1.5435848422426857
40	0x3fd64273fa61f68f	0.3478059716361281
41	0xbfe374b4ccafe666	-0.6079963681979279
42	0xbff8c84cc4d8d930	-1.5489013375605047
43	0x400a8e13558011e8	3.3193728141507
44	0xbfc140dae1fdf653	-0.13479171786086627
45	0xc001a676435cfa53	-2.206280256533583
46	0xbfdb6be6f33ee740	-0.42846082453216994
47	0x3fd3437b38336316	0.3009937332949887
48	0xbfed5449159a8fd7	-0.9165387556026826
49	0x3ff7127940b5c081	1.4420101669057035
50	0xbfac71e4162976a8	-0.05555641909152814
51	0xbffcd0a24eab9cae	-1.8009360383091848
52	0x3fe119537f3a01fe	0.534341572274627
53	0x3ff692707d4ba650	1.4107518095355722
54	0x3ffb467618c29c33	1.7047024695582536
55	0x3fcd70946ea7e6f1	0.2299981632530073
56	0xbff31c01e21f2d12	-1.1943377335435952
57	0x3ff1d4ffd21bd942	1.1145017821668977
58	0x3fd7febf912ad5c6	0.37492360283371473
59	0xbfd8e004cd2b6306	-0.3886730197532845
60	0x3ff0809eb0859d42	1.0314013381374285
61	0x3ff92e71e9b01d2a	1.5738391045031883
62	0xbff569fe7184d248	-1.3383774217919768
63	0xbff2349440acec92	-1.1378366972337841
64	0x3ffeae66bff7fd2b	1.9175784586694344
65	0xbff90d89e594be88	-1.56580533676234
66	0x4003756f1646a026	2.43234078791649
67	0xbfddf65c95edc3cd	-0.46816172257882444
68	0x3fd3acfb89627663	0.3074330178877515
69	0x3fd6161ae100ec7e	0.3450991818714967
70	0xbff89b5d98c8f213	-1.5379310577546945
71	0x3fd64935f6b42e54	0.3482184323517903
72	0x3ff6307431723e30	1.386829560422381
73	0x3ffffa1b5a6646e8	1.9985612422209957
74	0xbffceb43905b8614	-1.807437480827848
75	0x40032e3488fa2f8a	2.3975611401892296
76	0x3fae0ac1bb74556e	0.05867581761610095
77	0xbffc86766b21acb7	-1.7828277764154288
78	0xbfcd5b60c3900b6d	-0.22935113476713856
79	0xc006cef7bc7cccc6	-2.851058456953612
80	0xbfc876cc56b63238	-0.19112543329210196
81	0xbfe75b8b4ec85e26	-0.7299248255466793
82	0xbfd1981d239e4204	-0.27490929106082285
83	0xc00240ed1298806e	-2.2817021801748103
84	0xbfc60ae6180f28aa	-0.17220760512129135
85	0x3fedaeebd34ddc8f	0.9276026846918216
86	0x3fe0d9f50eff9c95	0.5266061108531114
87	0xbfde6b774f415f7f	-0.4753092073419722
88	0x3fe6db21dde5cdb5	0.7142495473803395
89	0xbff228c5c605b3cc	-1.134954236530791
90	0xbff6801f8a1b6aaf	-1.4062800783928358
91	0xbfe24766fe5871cb	-0.5712161033330231
92	0x3fc9ea258f4c7132	0.20245809075357496
93	0x4000beffe05c4e39	2.093261483017866
94	0xbfc6b8a69eb11473	-0.17751009701365525
95	0xbff093f0865c26b8	-1.0361180542408146
96	0xbfb6f0934c30e726	-0.08960838899738785
97	0xbfffb06576162775	-1.9805655110125973
98	0x3ff5b00c7ffac936	1.355480670853081
99	0x3fd70d9a9a5e376c	0.36020531725886573
100	0xc004d25cf17adf6f	-2.6027163377402114
101	0xbfdb6efe84e1378f	-0.4286495492605064
102	0x400a7992149d7994	3.3093606577451258
103	0x4000cce8b3e0dbd0	2.100053220080987
104	0xc00107d7495b0faa	-2.1288285952486676
105	0xbff020a499240403	-1.0079694730814033
106	0xbff89712ad91c145	-1.5368830471089308
107	0xbff3c8edbfa05d8c	-1.2365548596770592
108	0xbff79ab89a82c5fa	-1.4752737079219274
109	0xbff5eac28215075f	-1.3698144036611308
110	0xc000b39460785471	-2.087685350105453
111	0x3fe220879ffc40a4	0.5664709210123147
112	0x3fdcbb45e2012edd	0.4489302355839138
113	0x3fd122572c8293c3	0.2677209791821122
114	0x3fceed3017442d5d	0.24161339889574665
115	0x3fb43b333ac9188a	0.07902832207864399
116	0x3ff477a7eec5ef48	1.2792128874852597
117	0xc0043498dcbf0348	-2.5256821866791235
118	0x3fe5f93304506557	0.6866698345431058
119	0xbfd7a3f208dcb138	-0.36938143601834694
120	0xbff0e1b4c30346db	-1.0551040284812447
121	0x3ff0da257acb2304	1.0532583996411526
122	0xbfcd0d27bb57ea59	-0.22696396491649543
123	0x3ff826ea97d10650	1.5095010691005832
124	0xbfda1935c58173fc	-0.4077886990324371
125	0x40097bf70c52ee49	3.185529800682876
126	0x3ff244b657ef9ea6	1.1417754588127678
127	0xbfffdc21a0b182d6	-1.9912430073820153
128	0x3ffb5d3627339c72	1.7102567225754481
129	0xc00108485f77df7e	-2.129044290395483
130	0x3fe13ddb5e644500	0.5388008922183474
131	0xbfc1def5173ad00e	-0.13961661943687925
132	0xbfffce52d014ff0a	-1.987871945209863
133	0x4004086107e98708	2.5040913217679908
134	0x40052d00c5958cff	2.6469741283668777
135	0x4004e2d86b9258b7	2.6107643512760563
136	0x3fe06aefaff3cc2c	0.5130537449425723
137	0x3fe1d7be8e209083	0.5575859809801077
138	0xc00f1013d5c92501	-3.8828503324517674
139	0x4003c83155a4e340	2.472750348181222
140	0xbfca397f99a3bc33	-0.20487971307690742
141	0x3ff72d1d67c1a62b	1.4485143712030417
142	0x3fe8d69478098bc7	0.7761938423612883
143	0xbfeb38fc4f149319	-0.8507062477625339
144	0xbff170bce5ab352f	-1.0900238963543634
145	0x3fa40f8578430728	0.03918091862716572
146	0xbfd4fb3e374c1cd8	-0.3278346576702922
147	0xbfecac4382e7498f	-0.8960282856663059
148	0x3fc04e6ef126f278	0.12739359641081527
149	0x3fde7fa9d93fb184	0.47654195991233217
150	0xbffd76732be3e0f7	-1.841418429799942
151	0xbfb6d5ba94dc07da	-0.08919874319329271
152	0x3ff0d3ff10f4ad5a	1.0517569219908496
153	0xbfefb3fb45269a35	-0.9907204008675935
154	0xbfc85f29e834c798	-0.19040416563217089
155	0xbff02ba202122a2a	-1.0106525498291696
156	0xbfe18b2affb539b9	-0.5482382768912465
157	0xbfc91d227d868586	-0.19620162133382396
158	0xbff6bb9400c17cf8	-1.4207954434894514
159	0x4002e250a9a341c3	2.3605054142901465
160	0xbfeaa88d6a0ea2ec	-0.8330752440861864
161	0x3fb87289f7ce1c8c	0.09549772548608554
162	0x4005f230b32342d1	2.743256949914532
163	0xbfe26b61390ef719	-0.5756078829215056
164	0xc0085608a496b550	-3.042008672570468
165	0x3fca4aee833daca8	0.20541173370597687
166	0x4004350685c33c0a	2.525891346951089
167	0xc00bd4cf3b7e2072	-3.4789108894220186
168	0x400a5e21cdb57e7b	3.2959629126560777
169	0xc0014de3b44880d5	-2.163031967604278
170	0xbfea2a7e5badf3ae	-0.8176872053733086
171	0x3ffe42d7edc27575	1.8913192069515763
172	0x3fcbc211de00b176	0.21686004009223908
173	0x40109bd87583c115	4.15219291321434
174	0xbff4278eefbd97e1	-1.2596577992312563
175	0x3fd89d1607e73620	0.3845877721003905
176	0xbff9c41d81ccf2ee	-1.610379702600024
177	0xc00344e4a22bc78b	-2.408639208756488
178	0xbff7d8bff0d07068	-1.4904174238972931
179	0xbfd4df0be5c9c498	-0.3261136764550172
180	0xc001c96f1f2119fb	-2.2233564788796207
181	0xbffbafa597e407a1	-1.7303825314743124
182	0xbff2e024d53ae570	-1.1797226266192773
183	0xbfcdae5240aa6ecf	-0.2318823638678311
184	0x400a6c151f08ba01	3.3027746605432644
185	0xbfeb6767ec883171	-0.8563727969899856
186	0xbff84c6c796abfd5	-1.5186581366397054
187	0x3fe7fac4b4ea03e1	0.749361375186819
188	0x4000345ba42174d9	2.0255654165945143
189	0xbff4cef15207523f	-1.300523109840597
190	0xbff1723e408db6b1	-1.0903913995384011
191	0x3fd665b4aa2d0d78	0.3499576246142264
192	0xbfe0e383dd228484	-0.5277728385009515
193	0x4001bc989aaf1200	2.217087944476816
194	0xbfce7199cc5a6959	-0.23784182050878647
195	0x3fc0de0d8354aac3	0.13177651322015124
196	0xbfd99ee34e0524c4	-0.40032274836682924
197	0xbfe0fc69ca7c9f3f	-0.5308121638126763
198	0xbfe515adad6d1e55	-0.6588962924224214
199	0x3fec864e257bfa12	0.8913946849932606
200	0x3fecabd303a46024	0.8959746428618058
201	0xbfd751844b1226b6	-0.36435038882391824
202	0x40144112755c6474	5.063546975864586
203	0xbfffa1dc4266f7ea	-1.9770166963421567
204	0x3fe2fb130143e113	0.5931487107000372
205	0xbff9717d8da98e4d	-1.5902076276478454
206	0xbff776b4f4e47ed2	-1.4664811674228315
207	0xbffc9002a5a3d7e6	-1.7851587744057666
208	0xbff2d0fce4769548	-1.176022427019534
209	0xbfe6302e1b947187	-0.6933813608807647
210	0xbfce8c4e2c4df659	-0.2386567798929942
211	0xc00488d19bf8f803	-2.566806047950196
212	0x3ff892deeb4b9339	1.5358571234912246
213	0x3ffe5d20eca6dd67	1.8977364772998386
214	0xbffc11e614b71c7b	-1.7543698128881988
215	0xbfec89896e1c773a	-0.8917891646012557
216	0x400887500cef325e	3.0660706530091337
217	0xbfef83d67d730356	-0.9848434877568291
218	0x4009b65e20dc6226	3.2140467231040644
219	0xbffb705df4fbd7f1	-1.7149333543470642
220	0x3ff3c18505bb1493	1.2347460006579112
221	0xbffa4412bebebce6	-1.6416194392184535
222	0xc00380463a74a7ac	-2.437633949933078
223	0x400d43e154d9c11a	3.6581446293786373
224	0xbfe6ace8c61c3769	-0.7086070889797443
225	0x400730502bd4bf15	2.8985904144573262
226	0xc0074edc8a9cf674	-2.913506586947557
227	0x3fdbf0816186ccb8	0.43655428432539223
228	0xc008d67648a818d8	-3.1047177959727428
229	0x3ff1ea0dc1d623ff	1.1196420261132969
230	0xbfd7182b2ddf9a7b	-0.3608501384718818
231	0x3fe352a23ecc8236	0.6038371302166243
232	0xbfed5d89890bab20	-0.9176681210204585
233	0xbfdcb9e4ca433690	-0.4488460517139652
234	0x3ff20ba69adaa309	1.1278444336878144
235	0xc00309e521a39bd0	-2.379831564717712
236	0x3ff382753d880bf2	1.2193500903674672
237	0x3fdf33f9bc1e7bc9	0.4875473343944888
238	0x3ffd043c98cd9918	1.8135343521949547
239	0x3fd9535e1c27aff3	0.3957133555365992
240	0x3fba93d2d1dc61f9	0.10381810782963176
241	0xbfe72378d50f078d	-0.7230800782492551
242	0xbfee295b80fd0b08	-0.9425485152536064
243	0xbfe14fd444f78113	-0.5409947726257393
244	0x3fdb99fb9ae68cd1	0.43127336623201723
245	0xbff25321b5f6cb2b	-1.1452958209963053
246	0xbffdb8a6d4dc8f2c	-1.8575809779076264
247	0xbff0a58d3e213b6f	-1.0404179026552034
248	0xbfbb18d9d8dccb9a	-0.10584794563764746
249	0xbfcefa09492cceee	-0.2420055014896358
250	0x4005015d122df681	2.625665800120999
251	0x40179d40d27c509b	5.903567589604928
252	0xc00df9843c14bd87	-3.7468342489079904
253	0xc0056accc8d91f5d	-2.67714840805631
254	0xbffe604a8af600ff	-1.898508589569303
255	0xbfea0d70662cd25c	-0.8141405101401449
