AWeight3.npy (npy, 262272 bytes, 1 tensors)

array f8 [256, 128]
-0.4109811521775903 0.5152179329250149 -1.4160660935953313 0.22447545442499298 -0.06102751790014979 0.5856768228949294 -2.3015655939331103 -0.22352988714257066
1.9065717278172511 1.072608825177473 0.8111895080114644 0.15188121998962942 -0.5481693894045421 -1.5925199184584484 -0.2873498851369786 0.1482037173023397
-1.249297212656772 1.3603970843320048 0.48210578029673623 -0.3159107937864712 -0.49740882438581185 1.515223969788895 -1.571671445458281 0.8205845128103083
0.6447183810835426 -0.12702165982259245 1.7281572881138267 1.067696409011597 0.2813722206517104 2.0222104544987745 0.14084045185942076 -1.9442251765963714
-0.5917913654839287 -0.4539796509764543 2.1021841427660157 -0.027517445166612663 -0.7170925590454914 1.484788120836406 1.7903487999522445 -3.01626217568229
2.9564790273497747 1.9329788291407353 -0.7841171678122887 -0.3642658858672416 0.2984044412504392 -0.272164241619751 -0.9965857106469448 -0.3014672465938403
-1.0230625148243557 -1.2248772292009942 -0.16363558901296196 0.3800680957358717 0.3014002686992773 -0.3018940673733886 0.12808144734891064 0.499621421452121
-1.3628428344343422 0.6725777699989877 -0.7535490183111218 0.048008476137924846 -0.7309046537756462 0.8455534078414153 -1.8407870229218992 1.1158096413913587
1.7414919582935025 -0.5349997467965592 0.7581419095092821 0.9874024784654792 -0.5003596129429366 -1.9157507332465142 0.43336791255699014 0.0391987490524424
-0.3285815770253117 -2.0362217683587343 -0.9100989472049649 0.06297750107565665 -3.216555125570387 -2.1155072784525557 0.48646874856553124 0.019136397590127963
-0.884610407173465 -0.7552193963725871 -0.1258267850308358 0.4135321254524923 -1.5392274327860953 -2.0767360452153567 -2.1141888749692055 -0.06340094693793814
-1.182823068240647 4.335306090727875 1.034632231591157 -0.2990713949172232 1.0096061366146565 -0.9974141343918368 -1.7541376704530578 -0.23952427466073364
1.6613749675341996 0.9508745587447711 3.3120190568147794 -0.9937575584325863 -0.0698900154919141 -0.11827456073782806 -2.2030511715658463 -1.5528661207987862
1.7470087406357502 0.6680064028513442 0.8281187017449179 0.2685775484164889 1.103856555949159 2.1619613497119192 -2.796557423944277 -1.0300210169244326
-0.8541218668292578 0.9482389607331262 -0.5105147246312021 -2.2364260837701777 -1.5019837262984772 -0.4166346469963199 1.2100836309335572 -2.083982466711284
2.6376153205238992 -0.1522423801126515 -0.7885348070462562 -2.4201533302777087 -0.4791821165065794 0.9532893687899193 1.2313107915038566 1.1346820405535871
0.24025373368426875 0.4048529998599519 1.4152816757949735 -1.7035484500722804 0.2716439217637256 -0.016368049527785474 0.30884485684660945 -0.5849294213847507
-0.46214833490044543 -0.2284072866288145 0.5818148719871964 1.4156717475905054 0.5160459440824239 -2.036417950932608 0.5027954634010505 -1.0415595660940187
-2.048975339769527 0.21642992761888885 1.701984874685297 -0.7286357916940712 0.5863438029316755 0.8163476982673393 0.2795926147164991 0.1839386451249095
1.3322966936344638 -0.021255430888760297 0.04709971680047688 1.2255727572403157 -0.08068796591589159 2.168340809477041 -0.02217295901932244 -1.5745591302760762
-1.2187794303049928 -2.1374453442084245 -0.8787254860047301 1.23330082027008 0.68811140877927 -0.42129204010219373 1.2803810505470905 0.4065553865348642
1.0432250759787691 -0.5450603953806324 0.6055026120055789 1.2997624880852805 0.5124134638569163 0.5166865928615844 1.2427173841709995 -0.5054117495300097
0.20456819852788918 0.18873919685352064 -0.02316602956893391 0.5004613638957465 -1.6163314875351824 0.3603002587841413 1.084957014824042 0.6939594998500394
-0.25407513166739426 1.5202098328619371 -0.1519116892212226 0.6399291224473359 -0.5872964057251518 0.8491400471766364 -1.28467083699166 -0.23048053567266985
-0.06638746217916539 0.03053035825527283 0.27949343055758924 1.4343460313993104 2.8552759837816604 1.5780469437143723 -0.936833232383267 0.00904860858679063
-0.3211620732103921 -0.12312238461813117 0.29040368660690546 -0.10911159556354451 -0.6567813501308783 -1.198537506200602 -0.86038404534587 1.1073873465617947
-0.23272419551823037 -0.4179967001050577 0.09166009252433545 -1.6345854477150672 -0.05226613481373949 1.1441420971929483 2.897814805806396 -2.122513064941972
-0.8971872354699043 -0.516427392205935 0.36353406774960434 0.7776288308840178 1.3055233424428057 -0.1787827975850918 0.2289767077916546 1.443177275424027
0.5383303281392413 1.045960737752969 -0.3207066828458797 2.240605146953462 -0.7793905681421159 0.0681038099456745 0.24847801077554513 -2.1865576770160686
-0.9786367425198046 0.9613420277723672 -0.5277916445662348 0.19430459120664278 -0.06118122414493582 -1.9123947239988666 0.5875048106276199 -1.0754858881112186
2.4910437858238668 -1.1461542402226401 -0.3800979183031515 0.3579213446302584 0.7503722796797462 1.1924887834629443 -0.48093573346247154 -1.5798540351335761
0.5095954029499941 2.192723761761877 1.096481947780404 1.1452209984291364 -0.8050497543258894 1.0212589816972653 -1.363169120870533 0.5975873442660421
00000000: 7302 f8e3 834d dabf 9d38 8751 aa7c e03f
00000010: 7876 8feb 34a8 f6bf 694a c197 9cbb cc3f
00000020: 9c0b 13b3 ff3e afbf 287c 0b52 ddbd e23f
00000030: 0b55 dc38 9b69 02c0 525b 7a99 a09c ccbf
00000040: bf40 275b 5181 fe3f 959c 18df 6729 f13f
00000050: ee8f f8b2 43f5 e93f 7bb3 5d04 d870 c33f
00000060: 4025 0588 9a8a e1bf 391f 802a f67a f9bf
00000070: 2f0d cbc5 f063 d2bf 5bc6 7ae3 56f8 c23f
00000080: 4684 f512 1ffd f3bf b679 acbb 2fc4 f53f
00000090: 1e92 e533 d2da de3f f50a f1e7 e137 d4bf
000000a0: cba5 5ed2 8bd5 dfbf cfbc 457d 5b3e f83f
000000b0: 4bce 24f5 9025 f9bf d1fa c373 3a42 ea3f
000000c0: c048 3c71 88a1 e43f 8a2c 69e9 3e42 c0bf
000000d0: ddaf ac41 88a6 fb3f e52e 6cd4 4815 f13f
000000e0: 70ed 6ca1 0002 d23f bd9c bdac 7c2d 0040
000000f0: 5d54 5857 0f07 c23f eba8 d8db 8b1b ffbf
00000100: 85e0 1972 f4ef e2bf 4e93 7faa 000e ddbf
00000110: 75cc 7aeb 45d1 0040 3684 3d7c 882d 9cbf
00000120: 4dc5 2918 6cf2 e6bf e1b4 4730 b1c1 f73f
00000130: cfa4 83c8 44a5 fc3f e9bc 4510 4e21 08c0
00000140: a637 ee79 dea6 0740 3951 7035 7bed fe3f
00000150: b08c ffe2 7c17 e9bf 144a b6dc 2150 d7bf
00000160: ecb6 09f1 0e19 d33f 3170 3991 236b d1bf
00000170: 2b77 5cb7 07e4 efbf b2e2 3b47 3d4b d3bf
00000180: 2bf2 aecc 765e f0bf ab88 90dd 1899 f3bf
00000190: f9dc a2cf 02f2 c4bf 7711 5c22 0953 d83f
000001a0: a26a 445a 244a d33f 7168 8e7e 3b52 d3bf
000001b0: de40 cb0d f964 c03f 2725 6120 ccf9 df3f
000001c0: 2ebc b749 34ce f5bf 4031 c5d0 c185 e53f
000001d0: 9688 b2d4 121d e8bf f6e8 e225 9194 a83f
000001e0: 43bd 0e28 9263 e7bf 4668 3605 c60e eb3f
000001f0: b69c e517 dd73 fdbf e265 e535 5bda f13f
00000200: a5e1 f1ab 26dd fb3f 0b81 fbc9 b71e e1bf
00000210: 2e38 62d2 b242 e83f 59f4 1f15 cd98 ef3f
00000220: 3e88 ba29 f202 e0bf 0c4f a93d eaa6 febf
00000230: 1a5b e4c4 4cbc db3f 26de 72c2 db11 a43f
00000240: 8f13 d905 7b07 d5bf 4c08 74a3 2e4a 00c0
00000250: c1d1 cbd3 871f edbf c5f5 8023 4b1f b03f
00000260: 0fd9 f040 81bb 09c0 c33a 7b14 8fec 00c0
00000270: 385c 67d1 4d22 df3f 7d5c 40e7 7d98 933f
00000280: 5f5c 107c ba4e ecbf 3434 17de c12a e8bf
00000290: 9d89 5593 171b c0bf 167c aa72 4f77 da3f
000002a0: d0c1 cef1 aca0 f8bf a3fe a4c9 279d 00c0
000002b0: 697a 5cdb dbe9 00c0 ad45 a261 0b3b b0bf
000002c0: 6dc4 b0e1 d7ec f2bf a74d d77a 5a57 1140
000002d0: ef24 e186 da8d f03f 33ab 1559 fc23 d3bf
000002e0: 1d9d a9c3 5827 f03f acfe f80b d1ea efbf
000002f0: ad70 74a9 f210 fcbf 630b 223f bba8 cebf
00000300: 3b3d ffea fd94 fa3f f807 8d7b 906d ee3f
00000310: 67fc e5d8 037f 0a40 53dd b3a6 dccc efbf
00000320: e9cd dae2 4fe4 b1bf 3957 51da 3d47 bebf
00000330: 8051 ea4a d99f 01c0 d15a 3e25 8ad8 f8bf
00000340: 04b5 ed6f bff3 fb3f e67b b8f6 4e60 e53f
00000350: ae69 a6ca f27f ea3f 13e0 b8e2 5f30 d13f
00000360: e86d f47d 65a9 f13f 67d4 6164 b24b 0140
00000370: 3cd0 a97f 595f 06c0 2e21 5e51 f77a f0bf
00000380: 6c90 9a61 f754 ebbf ab89 a43b f957 ee3f
00000390: d25b cdf9 2256 e0bf d3b6 cd5b 33e4 01c0
000003a0: 0338 7916 2008 f8bf 62b3 ce5d 24aa dabf
000003b0: 918d 44a7 805c f33f f1b2 dfff feab 00c0
000003c0: 30a1 a80f d619 0540 b613 d3a5 ad7c c3bf
000003d0: d3ae 0059 ad3b e9bf 35c9 6659 795c 03c0
000003e0: 1253 ce77 ebaa debf 5078 d2b4 5881 ee3f
000003f0: f788 cbf1 72b3 f33f 4994 f85a a827 f23f
00000400: d939 7564 a2c0 ce3f cb80 858e 1ce9 d93f
00000410: 06ae 0266 fea4 f63f 1464 0305 bc41 fbbf
00000420: fb78 0830 9d62 d13f 1f41 af35 c9c2 90bf
00000430: 526a ec37 1dc4 d33f 461a eae7 bdb7 e2bf
00000440: d516 139c d693 ddbf d892 1e31 733c cdbf
00000450: ad5d f038 3a9e e23f b35b 1c6b 97a6 f63f
00000460: 9828 a2c8 7283 e03f 6df1 a17e 954a 00c0
00000470: 464f fc82 e616 e03f 2e5b 135d 3aaa f0bf
00000480: 01f7 d42e 4d64 00c0 dad7 7fd2 f9b3 cb3f
00000490: ccf5 f07d 543b fb3f e3ac 0002 fc50 e7bf
000004a0: dbb8 3914 54c3 e23f 9f23 4735 851f ea3f
000004b0: 8045 1a6c d8e4 d13f c319 a430 4d8b c73f
000004c0: cba9 7b56 1651 f53f 0d53 1ed2 fbc3 95bf
000004d0: 7229 9e3e 741d a83f 8573 f32d f29b f33f
000004e0: ca1d ca6e f7a7 b4bf d949 fa10 c358 0140
000004f0: 74c8 5f17 82b4 96bf 9576 22ea 6431 f9bf
00000500: c728 23dc 1e80 f3bf b3e6 d2f1 7c19 01c0
00000510: 29aa 11e9 841e ecbf 1b0a 13a4 99bb f33f
00000520: 37c4 9637 0205 e63f 6f75 93e3 72f6 dabf
00000530: 3949 28d7 707c f43f 2a83 4be2 0005 da3f
00000540: 8622 fbc6 0cb1 f03f 0f26 907f 2271 e1bf
00000550: f69b 8603 4760 e33f 4a4d 2ec0 d3cb f43f
00000560: 0375 a9eb b065 e03f d5e8 5352 b288 e03f
00000570: 37f6 b29f 2be2 f33f 6cdb e742 552c e0bf
00000580: 3b4d 3d6d 4a2f ca3f 52c6 fa22 9b28 c83f
00000590: 2ac8 81ed d5b8 97bf 4c00 db8c c703 e03f
000005a0: 9756 e767 7edc f9bf 60f7 0dd1 280f d73f
000005b0: c1c2 03e3 fb5b f13f 8a57 938d ea34 e63f
000005c0: 2a41 4f57 c442 d0bf c031 b38b c752 f83f
000005d0: 06ea 8a9c d771 c3bf cd6a 95a3 4c7a e43f
000005e0: 63bb f4d4 21cb e2bf 221f 8bbf 272c eb3f
000005f0: e710 f001 038e f4bf 2212 8add 6280 cdbf
00000600: 2288 ecca c4fe b0bf 9e5b f7a8 5943 9f3f
00000610: b244 ec69 38e3 d13f 6c1e 00d3 14f3 f63f
00000620: f22b 5bef 9ad7 0640 4de5 ec26 ae3f f93f
00000630: 158c dcaf 89fa edbf e0f5 a2af 1388 823f
00000640: 47de 495e eb8d d4bf e724 57d7 f284 bfbf
00000650: d753 2758 f995 d23f 354f 8fce bcee bbbf
00000660: 46ea 6d52 5a04 e5bf 6393 02aa 352d f3bf
00000670: 9857 181f 4488 ebbf 45cb 57cb dbb7 f13f
00000680: 068e 5e0c e8c9 cdbf 8b60 323b 75c0 dabf
00000690: e587 bd2b 0977 b73f 7c42 0712 4327 fabf
000006a0: a93a 6d77 a0c2 aabf a4ba 96f1 674e f23f
000006b0: ac6c 6687 b92e 0740 6511 3a21 e8fa 00c0
000006c0: a56b 5701 c2b5 ecbf cc0e 09bd 9286 e0bf
000006d0: 7bd9 fd64 2444 d73f b25a a2db 55e2 e83f
000006e0: a84d bf71 6ce3 f43f d290 5bce 5ae2 c6bf
000006f0: 5565 c1d7 1b4f cd3f e06c 040e 4117 f73f
00000700: 18b2 3986 003a e13f d8c8 9853 41bc f03f
00000710: efa0 9b52 7586 d4bf ad50 2b64 c2ec 0140
00000720: 6166 1f7d c4f0 e8bf ac1d 7354 406f b13f
00000730: 592e 07a1 20ce cf3f 60d0 8cf3 117e 01c0
00000740: 482b 7900 fe50 efbf 3caf 315b 50c3 ee3f
00000750: f972 904d abe3 e0bf a8fb 580c f9de c83f
00000760: 78da a939 2553 afbf a6e3 c935 2b99 febf
00000770: f66c 7ce3 d6cc e23f 87f4 cbb0 3035 f1bf
00000780: ea23 485d a8ed 0340 f4d8 1ed4 a556 f2bf
00000790: 19f1 1838 8653 d8bf 2a8c 6eed 2ee8 d63f
000007a0: 4d95 21ba 0c03 e83f 6c1f 5d1e 6f14 f33f
000007b0: dcbd acab a6c7 debf 34a3 5506 1547 f9bf
000007c0: de96 bb04 9b4e e03f 536f 6fc1 b28a 0140
000007d0: 7ff0 a5a7 308b f13f 3621 ef40 d352 f23f
000007e0: e270 cfb3 f7c2 e9bf 202d 72a8 1357 f03f
000007f0: 6be5 906c 8acf f5bf 5f09 847e 6f1f e33f
