Weight3.npy (npy, 262272 bytes, 1 tensors)

array f8 [256, 128]
-1.2126852706031899 -0.3290682688912074 -0.05275250405513007 -1.5738829257247555 0.32707503267628496 -1.0181077910924832 1.2068225780758937 1.0957649334659127
-0.6828908959257811 -0.22545837649056683 0.16405442940530426 2.321915479507709 1.0960369661570737 1.4784681411500296 1.4137285537992217 0.7103833717272372
0.717958580275246 -2.1234649428630883 -0.4335650034428044 -0.7273079386126313 -0.4118755735285935 -0.33467586106545333 1.4159727552204322 2.130957983480909
-1.182975591902113 0.7793158924862745 -1.3086531679005595 -1.7805028513254026 0.8084672408123631 -0.20830966716598637 -1.2517969281431849 -1.4435973958703177
-1.057284444936895 -1.664311002504074 0.849610334953565 0.9080147379093498 0.8077053044528117 -0.8895006813215989 1.2463496210131946 -1.6977664166903375
2.697479622746641 -0.7875674200235484 0.22678812590601902 1.684018655886743 -0.28219939868396077 0.2323981584227728 -0.9167662821550662 0.3816199546404645
-0.5832540542766801 -0.6846185391539878 0.7701117020510531 0.46873850367717335 0.15470791190309913 -0.6202755522576677 0.742840431301402 -1.7790480914151676
-0.5226694498382009 -1.8743198222903616 1.0349944748965945 0.6228743824599328 -0.5673419362762118 0.412823999548722 0.25399715289280395 -0.7255195089074542
1.3743826746707943 0.3370570522154914 0.3188593891350929 0.8719168600017084 -0.9726022859985883 2.1279281196686326 -0.6648529925114888 -0.23790725414482686
-1.1389074993960526 -2.220788314013246 -0.2964177374415507 -0.043159427413751845 -1.297374914701965 1.8093227136553014 0.6035289373445623 -1.7578804329181907
0.6487650971340403 -0.9372599862117925 0.272211297882456 -1.2970881408608013 -0.9829368738761097 1.3023330506659483 0.017547442371500084 0.08487405217618427
0.6660954599355936 -1.603401439484715 -0.43534462174036787 -0.9188200710459764 2.0195864993106514 -0.4878309414638255 -1.5845822666717386 1.2432594745370544
0.31866397851591605 -0.36728089158178334 -2.651096298893331 0.5066827315855947 0.21222042445315287 -0.09324398135463711 0.3700223998550595 -1.5500744947197824
-0.7274868800860933 -1.4030810939086296 0.2194547259554247 0.5618038060604397 -0.10691178659036606 -1.2207398553914253 1.0415092848381586 -0.2794301373653029
-1.3558588707699175 0.40717426745721275 0.9307310865865547 -1.9447927995798575 2.1957966256391046 -0.19230260536282 -0.10012050866873799 -0.9100209505762782
-0.5403904091917743 1.9240539338615439 -0.44848880947657116 2.417328965981088 1.387243343385227 -1.746363356942704 -1.1331271266558203 -0.1645803867506538
-0.11557170088413837 -0.47074169302297536 1.3687099714653623 -0.25554370285716227 0.41068185432463983 -1.4538505875031575 1.8486650948332388 -1.407089493693627
-0.24173831054102313 1.2343549361898913 0.4307965671051508 -0.13002486598580276 0.33859261781339167 1.1011317678462724 -1.7516599106365618 -1.2811571861323998
1.299144426976164 -0.43153811029862404 -0.5097114409301557 2.013078497397652 0.5424583401244643 2.0693654430981994 0.8348553274243845 -0.24744723455103973
-0.42304420542415244 -0.446045414985696 0.5876611374553535 0.3353299358632533 -0.49997608641237656 -0.016609849372763854 0.7058677861550589 0.2662320513056794
0.8081404591573942 1.6474448001972641 -0.5875523936023227 -0.8828076206688259 -1.148518739877142 0.2626570387043009 0.810540714052138 -0.4519481524100699
0.7989743929495557 0.7153802393032426 0.4396064197311826 -1.752268693863355 -1.10595660473211 -0.1497665709853303 -0.9109192687699487 -0.43196642823244724
-0.12979393974065662 0.3789748164336171 -1.8301835557285175 -0.03680641584961473 1.613211200590835 -0.255048348304072 -0.13326968066038586 -0.18648605340732233
0.49399176956404584 -0.8630388370787746 1.3085271059526544 -1.5223674897747674 0.5124722325001358 -0.7238133204693201 -0.49129103777864336 0.5434207569594736
0.25107047994333836 0.5234589080704657 1.3234405727931537 -0.6943154217090478 -1.5539659505676486 -0.9085830720828807 1.0338880147555067 -0.19278154888552265
0.41093443941464775 0.636206070394611 0.46505860584138703 -1.2623457960347948 -1.4978420632050782 -0.08891661243776676 1.620573787941364 -1.4367152656394748
-0.6926008013866942 -1.3801365335096178 0.25645781210706653 0.982352593460012 -1.2929349650825883 -0.3442273360687305 -0.11224398145255704 1.2350959532882348
0.16922674096936985 -0.46997326333275685 -1.246174234462094 0.673305422394194 0.8449161736809918 0.4982859581749684 -0.6657262635145283 1.0469779021959267
-3.238464813759695 0.9738676392718918 0.14546182983849676 0.27837558014166275 -1.7235365220181862 0.913068413713577 -0.6688232720189967 0.07845139411750851
0.07502718216627112 -0.19355425404180726 -0.8647562978469916 0.423484577206049 -1.9177823764749324 0.7294357362402164 -0.7924368484249029 -0.39698544804990704
-0.30107686209190154 -0.24314158606182099 1.1235377086513405 -1.053144754102855 -1.2233446030157304 -1.1022977911561092 0.7447032076131971 0.255019458270993
-0.800980863435029 1.6938235090200857 1.1975195689584057 1.4737595418315999 1.072372603786502 0.36209468384304744 -0.5563079284968553 1.658054871628814
00000000: 474e 99ab 2867 f3bf 1f80 425b 740f d5bf
00000010: 0cd5 654f 6002 abbf ab87 dbdc 9f2e f9bf
00000020: 97b2 2b1e ccee d43f 62b8 2865 2b4a f0bf
00000030: e090 0e31 254f f33f 756f 95cf 4088 f13f
00000040: 8898 1702 3eda e5bf 4e70 d1f0 d1db ccbf
00000050: fda4 874c bcff c43f 807e 446c 4893 0240
00000060: 86a0 cd0e 5e89 f13f 37ad a635 cea7 f73f
00000070: 15d3 ffd4 a19e f63f 2c1a a6e8 75bb e63f
00000080: d045 c545 84f9 e63f 5265 1e30 dbfc 00c0
00000090: b786 9e6d 87bf dbbf 34cc 4e4c 1b46 e7bf
000000a0: 3ce6 945d 2b5c dabf 4e5a 824d 546b d5bf
000000b0: 292e 3b0c d3a7 f63f db9a 01b3 330c 0140
000000c0: 1cf9 72d0 77ed f2bf 4769 efe1 27f0 e83f
000000d0: 0309 df4d 3ef0 f4bf a509 ce8e f07c fcbf
000000e0: 87a5 e5b0 f6de e93f 4293 f523 e4a9 cabf
000000f0: 5bbb 3937 5c07 f4bf 15a9 3d95 f918 f7bf
00000100: f62c 1918 a3ea f0bf 2c0c e292 04a1 fabf
00000110: 6b03 5f03 0230 eb3f d569 73ec 740e ed3f
00000120: 10c7 6dcb b8d8 e93f b678 0122 ca76 ecbf
00000130: 7e23 da4c 0cf1 f33f eae9 3e1e 0d2a fbbf
00000140: ff95 4a32 7094 0540 f7ad 0c97 c033 e9bf
00000150: 0399 f1af 6407 cd3f f332 ce8b bdf1 fa3f
00000160: 3f1a 1311 8e0f d2bf a9c8 090d 39bf cd3f
00000170: fece fd3d 2656 edbf 96a2 2b1a 766c d83f
00000180: 8716 0c68 04aa e2bf 82da 7c23 65e8 e5bf
00000190: fa6f d24b c1a4 e83f 07d8 eac7 cfff dd3f
000001a0: 8633 0707 78cd c33f 8a8f 6e1d 4cd9 e3bf
000001b0: f9c0 d24b 59c5 e73f d53a aa21 fb76 fcbf
000001c0: 5f8c 3548 b5b9 e0bf c7b4 2fc8 36fd fdbf
000001d0: 898b d35d 568f f03f bacf c541 96ee e33f
000001e0: a694 be46 aa27 e2bf 1934 445a b56b da3f
000001f0: bbe8 3c46 7d41 d03f 88c2 6bb0 7437 e7bf
00000200: af66 feaf 78fd f53f 74b5 09be 5792 d53f
00000210: 91e5 1636 3168 d43f 263a d12f bee6 eb3f
00000220: ee1e 4cd4 8e1f efbf 73b9 912d ff05 0140
00000230: a881 6fc8 7946 e5bf a13f 04b2 be73 cebf
00000240: f633 f111 f738 f2bf fb34 e0a9 2cc4 01c0
00000250: 7502 111a 82f8 d2bf 1926 8312 fe18 a6bf
00000260: 4fbb d432 0cc2 f4bf aef3 b05f fcf2 fc3f
00000270: 74b4 02eb 1b50 e33f 5a97 9a3b 4720 fcbf
00000280: 4f43 5f05 afc2 e43f 4221 94a7 08fe edbf
00000290: 7070 80ef e86b d13f e26c 907e dfc0 f4bf
000002a0: 6092 ea07 3874 efbf 36c3 512e 5bd6 f43f
000002b0: 42c6 74ec f4f7 913f 782e 604e 4eba b53f
000002c0: 9dff 0d6d a750 e53f 8723 8f44 88a7 f9bf
000002d0: d951 37b0 afdc dbbf b0a0 8159 f966 edbf
000002e0: e7db 6ff7 1c28 0040 eb18 e444 9f38 dfbf
000002f0: a2d3 52ef 725a f9bf bd42 f90b 64e4 f33f
00000300: 1de7 8899 fd64 d43f dc86 72b6 8781 d7bf
00000310: 1559 f2f9 7135 05c0 5b75 33b4 be36 e03f
00000320: 5ee6 48f3 092a cb3f 538d 776a d6de b7bf
00000330: fb8d 8a6e 72ae d73f 8af6 d2e9 1acd f8bf
00000340: 9da4 c790 9247 e7bf 5493 3f29 0573 f6bf
00000350: 4831 77ab 1717 cc3f 8588 b9f9 4bfa e13f
00000360: e969 f622 925e bbbf 7047 bd83 2688 f3bf
00000370: 8bc3 cda3 05aa f03f 830c 60f1 2ee2 d1bf
00000380: 2e2c 3f12 99b1 f5bf 5818 a0a8 240f da3f
00000390: 4150 488f 8cc8 ed3f 7e11 fb0d df1d ffbf
000003a0: 004c 3ed2 fd90 0140 1e05 7c2c 5f9d c8bf
000003b0: 0f20 6466 7fa1 b9bf 5ecc ac41 e41e edbf
000003c0: 919f d1d3 e04a e1bf c2ce 1ac7 ecc8 fe3f
000003d0: edb9 5468 0ab4 dcbf 877f a491 b056 0340
000003e0: 95ee 7613 2632 f63f ea06 10b4 1af1 fbbf
000003f0: b927 f3e8 4921 f2bf 851b 5459 f810 c5bf
00000400: c0f5 a363 1b96 bdbf 316e 19c4 a120 debf
00000410: f871 526d 3ce6 f53f a318 9ef9 d35a d0bf
00000420: 41a3 588b 9c48 da3f 0d8b 69d5 f842 f7bf
00000430: 490c b9d9 2194 fd3f 6659 df45 7083 f6bf
00000440: e863 fbec 47f1 cebf cf77 29f6 eabf f33f
00000450: 3886 bcc3 2b92 db3f 00b4 89a1 a7a4 c0bf
00000460: 1e3c 0b5f 80ab d53f 50c8 3758 3c9e f13f
00000470: 805f de8a cc06 fcbf ad95 77ad 9e7f f4bf
00000480: e54a aaaa 4bc9 f43f 6d74 ad05 529e dbbf
00000490: 5025 265e 8e4f e0bf 74d4 34e6 c81a 0040
000004a0: 56dd c897 d15b e13f 70a2 2c78 0f8e 0040
000004b0: 37bb 0585 22b7 ea3f 12f1 f0d9 59ac cfbf
000004c0: 52c7 c300 2813 dbbf 6b3c 7911 028c dcbf
000004d0: 6807 d0ba 1ece e23f c0c1 f9b0 0b76 d53f
000004e0: 2816 fbb2 9bff dfbf d7d8 631f 2c02 91bf
000004f0: b0bf 1a0a 7896 e63f 1250 6028 f209 d13f
00000500: 4cf9 5461 49dc e93f 0400 2d14 ef5b fa3f
00000510: ffab 66ad 3acd e2bf 6dd4 6dc4 f53f ecbf
00000520: e8d8 a92f 5560 f2bf be25 d377 5fcf d03f
00000530: 01c6 5d14 f3ef e93f 1cb0 85f1 b7ec dcbf
00000540: d7e9 01bf 3291 e93f f762 8019 65e4 e63f
00000550: 5fda f6f6 8222 dc3f f729 dfe5 4a09 fcbf
00000560: eee9 818d ffb1 f1bf 5441 350e 8d2b c3bf
00000570: a338 952a 4026 edbf 569c 8e84 56a5 dbbf
00000580: ceda 337b 169d c0bf 60c2 a596 1f41 d83f
00000590: e17e 588d 6e48 fdbf 0dd2 b660 4ad8 a2bf
000005a0: ab41 418c b6cf f93f fd58 b74e b652 d0bf
000005b0: 560b fe1b fb0e c1bf 1ab4 4566 c6de c7bf
000005c0: e353 b1a7 8f9d df3f 77cc 8d9f 039e ebbf
000005d0: 58f0 5f1e baef f43f 4838 5103 9e5b f8bf
000005e0: 3447 d62a 2c66 e03f 8f65 7a8d 7a29 e7bf
000005f0: 6af0 04f7 4f71 dfbf dc78 63ed b363 e13f
00000600: 1940 16eb 8911 d03f f8cc 5ee5 2cc0 e03f
00000610: a389 a505 d02c f53f 7129 abf9 d437 e6bf
00000620: d591 8c66 0bdd f8bf 2472 89ce 1c13 edbf
00000630: ca9e b128 ce8a f03f 5726 ded7 10ad c8bf
00000640: 1d81 85f6 bf4c da3f a391 3bd5 cc5b e43f
00000650: a4f9 b32b 85c3 dd3f 8666 6381 9132 f4bf
00000660: a59f 403d 29f7 f7bf d3c6 7d36 3dc3 b6bf
00000670: 7068 bfc7 deed f93f 325e 7925 c9fc f6bf
00000680: ae74 e427 c929 e6bf 9304 b70b 0a15 f6bf
00000690: 966d f306 ce69 d03f 2da6 c1b4 6e6f ef3f
000006a0: 6627 ee92 dcaf f4bf 457b b317 d207 d6bf
000006b0: ccf5 8285 05bc bcbf f6b7 6cf9 f3c2 f33f
000006c0: cc3a 09cb 38a9 c53f af8c 00bd 0a14 debf
000006d0: d81e e264 54f0 f3bf 85e1 2cd0 b78b e53f
000006e0: 3848 baa4 8d09 eb3f 89b8 9ac9 eae3 df3f
000006f0: fd42 3c2a a14d e5bf 1f0f 99e6 6bc0 f03f
00000700: c9c1 823d 60e8 09c0 a9c6 a977 ec29 ef3f
00000710: 2480 fc44 7e9e c23f 78a9 2dcf e7d0 d13f
00000720: a079 3808 9b93 fbbf 1722 fd3f db37 ed3f
00000730: 7b02 0410 0067 e5bf 3470 0ffc 6315 b43f
00000740: 4f15 b73d fb34 b33f 0c3d 8ec3 62c6 c8bf
00000750: 6269 4866 15ac ebbf a976 5d0e 5f1a db3f
00000760: 42e1 bc92 3caf febf e4ee f59c 8957 e73f
00000770: 262b 8485 a45b e9bf 3b2f 17a7 3568 d9bf
00000780: d816 11e3 d744 d3bf 836f 3774 431f cfbf
00000790: 3eaf 27ad 02fa f13f 2a36 4d50 aed9 f0bf
000007a0: f70c 5bca d192 f3bf 167f 3702 03a3 f1bf
000007b0: 6f99 3dd2 9bd4 e73f f785 4722 3d52 d03f
000007c0: fd9b a59e a2a1 e9bf e4fe 06ae e619 fb3f
000007d0: 21f1 8f47 0a29 f33f ca5a a5e2 8494 f73f
000007e0: f33a e62c 7028 f13f 8853 4a2e 8f2c d73f
000007f0: b4c8 ec48 46cd e1bf 62e8 898b 6487 fa3f
