Weight4.npy (npy, 10368 bytes, 1 tensors)

array f8 [128, 10]
0	0xbff0771bd1c1ad81	-1.0290792649855975
1	0x3fed63744e77d883	0.9183904202061658
2	0xbff16f2653a3c92c	-1.0896361605815157
3	0x3ff08abf4956d6c1	1.0338738312542974
4	0xc006d2690cb42df7	-2.8527394287573276
5	0xc004dd0c68befe34	-2.607933824852603
6	0xbff42b6ab166f22c	-1.2605997972269831
7	0x400356dc67f5ecfd	2.417412578766401
8	0x3ff88c52f98ea1f1	1.534258818466807
9	0x3f9eba3718e8d73a	0.030007229705197626
10	0xbfeb2abf2bf2f1fc	-0.8489681108836176
11	0xbfa6a1bddef2fcb6	-0.044202741113161734
12	0xbffdeceee7ea04dd	-1.8703450259347882
13	0x3fdeeba2e265a706	0.4831320963772757
14	0xbff30fc5cbc2af9a	-1.191350742282316
15	0x3fefef8f08c53357	0.9979930087371071
16	0xbfd40576f32b7d57	-0.3128335356431839
17	0xbfe270c2c3264df6	-0.5762647449031977
18	0x3fe0a253522ef411	0.5198151211876639
19	0x3ff3d3e8c1b69d60	1.2392356459548282
20	0xbff31f026b64e6b0	-1.1950706667979993
21	0x3fd5303573eb5d35	0.33106743164303803
22	0xbff3db256c558adf	-1.241002486400866
23	0xbfececb173de4c88	-0.9038932097486319
24	0xbfd417c09b9dd6df	-0.31394972989015274
25	0x3ff23614419a19d5	1.1382029116226609
26	0xc0011aedc3816141	-2.1381488107546436
27	0xbfcc3692cf1ff1ec	-0.22041545022501852
28	0x3fd659bb00434904	0.3492267134253242
29	0xbff0eeedfe135c10	-1.0583324360684436
30	0xbff3f2380554335a	-1.2466354568634501
31	0x3ff499300ad84c03	1.287399332392625
32	0x3fd4f401ad09db93	0.32739297769824666
33	0x400acc402654a827	3.349731730898401
34	0xbff1824f278a4926	-1.09431376881964
35	0xbfef300cc2b96da1	-0.9746154597482254
36	0x3fa3c94efc59a034	0.03864523725934568
37	0x3fe6cf3ff46a4185	0.7127990506869969
38	0x3fcad87bc3a12e74	0.20973155071475313
39	0xbfe615a35c82f476	-0.6901413733354633
40	0x3fe47d233fd362f5	0.6402755972477211
41	0x3ffe40fcb287eaed	1.89086599100727
42	0x3ff309e2503edda2	1.1899130949585488
43	0xbfd5fd54be93b2a7	-0.3435870991805054
44	0xbfd3b3b66f4d320d	-0.3078437888077879
45	0xbff1e4494341e244	-1.1182339312782839
46	0xbfea0c0a3c7422b0	-0.813969724725288
47	0x3fcf21c95497e0bb	0.24321858053713705
48	0x3fe2fcffc9340f97	0.5933836869958097
49	0xbfe6db848b2be371	-0.714296600169389
50	0xbff4aa95f77c5607	-1.2916469256791758
51	0x3ffe2d5ff1dd55c7	1.8860778282008697
52	0xbfd24ba97da1271b	-0.2858680464602103
53	0xbffa9e2beee82767	-1.6636161167429806
54	0xbff36739452a65ca	-1.2127011014730322
55	0xbfe6caee1ed46498	-0.7122717477933689
56	0x3fd4ad4978ecf27e	0.3230765992082424
57	0xbfb247e4960c64f6	-0.07140949881831546
58	0xc001598f49bb56e8	-2.168730331449172
59	0xbfb2c3abb8674226	-0.07329819919619548
60	0x3ff0aacf4cad72b3	1.04170160247956
61	0x3ffa8e9bb6ede14f	1.6598164697334885
62	0x3ff362521de5c26c	1.2115040939208042
63	0xbff7054ab5ac16f1	-1.4387919518061916
64	0xbffdd046cbd1e1d0	-1.8633487664902653
65	0xbfa128cf75d91857	-0.03351448358130032
66	0xc0033c86cf2439e2	-2.404554003041299
67	0x3ffeadfcbfadc7f8	1.9174773681120296
68	0x3fecd9f2de4d8fa2	0.9016050664763393
69	0x3ff3bd53993b4361	1.2337223039250704
70	0x3fdf611796f052c4	0.4903010343562466
71	0xbfe0d99f3b16f40b	-0.5265651849837253
72	0xbffec55d97b9f14e	-1.9231849600610817
73	0xbfc21ae215947aa5	-0.14144540837965738
74	0x3fd198f7f6c47ff8	0.27496146295925383
75	0x40015684a72d0ba9	2.167245203077489
76	0xbff50609e17004b3	-1.3139742666392464
77	0xc0013f8f27a0c060	-2.156034764855619
78	0xbfe435fb25bf39a3	-0.6315894829984255
79	0xbfff7e02b4ec0817	-1.9682643000855984
80	0xbfb221f75ac073b2	-0.07083078351611397
81	0x3ff1d4163c1fa550	1.1142790173128851
82	0x3fe420ede41422c5	0.6290196852360955
83	0x3fd70b3686c24f50	0.36005938682614147
84	0x3fd21f019934c0e2	0.28314247094659895
85	0x3ff576424bf8c941	1.3413718192719701
86	0xbfa6efa060f13003	-0.044796954950101074
87	0xbfbe154198662e9a	-0.11751184435541476
88	0xc0060c7839b64348	-2.7560886868235777
89	0x3fc9ab2e80c6f17d	0.2005365494532149
90	0x3fd3b97fe9fde7e8	0.30819700098766
91	0x4002b43db0aa7e61	2.3380082895308054
92	0xbfcdc8ea07b578d8	-0.23269391418847962
93	0x3fd859e677220d6c	0.38048707613071175
94	0x3fd53db9d5a03cda	0.33189245092303354
95	0x3fdcf3c3127adc5c	0.45237805180244606
96	0x3ff162f7df608bcd	1.0866621709508195
97	0x3ff59a7c0dc8018c	1.3502159632044792
98	0x3ff3fe2fe43d5253	1.2495573917014056
99	0xbfc05c4923552cd2	-0.12781633591871483
100	0xbfeb32e4251ba13e	-0.8499623036159745
101	0x3ff1a45ca1109fcb	1.1026274005507612
102	0xbfe48a5d07d06977	-0.6418900635356256
103	0xc0080ae722c478fd	-3.0053236690720255
104	0x40000a02d1c34813	2.004888190052051
105	0x3ff8cb62fdb15136	1.5496549520367586
106	0x3ff1d97e10e0f6d0	1.1155987414671706
107	0xc0022926ea8dd8f2	-2.2700937580622105
108	0x400326730d435f92	2.393774131411143
109	0x3fde643a3aca7f61	0.4748673986559791
110	0xbfd78866a339dd54	-0.3677002519611581
111	0xbfd17d9a7cb0ac1f	-0.27329122711916115
112	0xbfbe9e6219800693	-0.11960423586426776
113	0x3fd387d1a825c78d	0.30516473217641576
114	0xbfe81c310d1f2adf	-0.753441358211912
115	0x3ff372c0ca48a399	1.2155158902844276
116	0xbfed2866f0d5e6a2	-0.9111818984813065
117	0xbfa2c1da56312ad6	-0.03663523008488816
118	0xbfd06c7871117613	-0.2566205124074667
119	0xbff390329c7e35be	-1.222704516697703
120	0xbfff2dc897c27d9a	-1.9486776283373275
121	0xc010121a70d52e50	-4.017678988467722
122	0x3feeb9d534a8fb4e	0.9601846722142484
123	0x3ff5f3066ff8d710	1.3718323110492214
124	0xbfcbad62269dd1ff	-0.21622874150820334
125	0xbfe0be179a43917f	-0.5232046139686161
126	0xbfd6bdce8ee710a8	-0.3553348918469603
127	0xbfe34db66dff6632	-0.603236403311888
128	0x40007c746544475c	2.0607688819372196
129	0x40019a25aa12b00e	2.2002671515419996
130	0x3ff1ddf0198d2393	1.1166840551470372
131	0x3fe65d2264749cc3	0.6988689386388603
132	0x3fe416904546bfd5	0.6277543404630658
133	0x3fee339b88239196	0.9437997492755581
134	0xbff0227b4b6b696c	-1.0084183641507378
135	0x3ffc01464db5d567	1.7503111873205286
136	0xbff8fb565f38ac4c	-1.5613616675934905
137	0xbffb024a97da3437	-1.6880594188435347
138	0x3fc7032de63d8278	0.17978452436638626
139	0x3ff6577541f28e92	1.3963520599435566
140	0xbfe63a0bd4433455	-0.6945857187034884
141	0xbff9630d4c6dd414	-1.58668260436139
142	0xbfd308e75454ed83	-0.2974184344818342
143	0xbfd4cd8b34b96df3	-0.32504539631710755
144	0xbfe7500fb4b2c8dd	-0.7285231141343292
145	0xbff243e13d0b5105	-1.141572226003576
146	0x4003cf42f6f69631	2.4762019437792095
147	0x3fa7dc3d513e4e70	0.046602169196515386
148	0xbffacba3e7ff68a8	-1.6747168600473206
149	0xbffd907bbd52a9b7	-1.8477742572236886
150	0x4006c66036a29eb9	2.8468632000329674
151	0xbfdb7a6dd9d07f24	-0.42934747954312713
152	0xbfd898f38758ac4b	-0.3843354055158598
153	0x3fe332cf76857717	0.5999524416799628
154	0xbfe699a4f346f883	-0.7062554122455967
155	0x3ff2433844cc5364	1.14141108392979
156	0x3ffb335aae3e8a32	1.7000376516740627
157	0x3fce3b753843d365	0.23618951079665887
158	0x3fce2735ed0fc1eb	0.235571614029609
159	0xbff770aeecf67dae	-1.4650105720864803
160	0xc003b46259318573	-2.463078209708948
161	0xbff0d40109d38982	-1.0517588027801996
162	0xbff142760c8651bf	-1.0787258614774229
163	0xbff652616faf90d4	-1.3951124537207322
164	0x4003c56a33c17619	2.471393970815154
165	0x400047638d44fcab	2.034857848804298
166	0xbff53bac9a7d16c6	-1.3270689043724118
167	0xbff1fb1451b98470	-1.1237986748094748
168	0x3fd384e610dd3e23	0.3049864926042309
169	0x3fc4e93bd96a0516	0.16336773029255686
170	0x3fe9fd55d96d599b	0.8121747252105708
171	0xbfbf0a3be2107cef	-0.12124990719938798
172	0x3ff3001d5b6aa6c5	1.1875279971085757
173	0x3ff5fe3dac93fe8a	1.3745705357868325
174	0xbfea2a782bcee955	-0.8176842551832048
175	0x3fc87ed5a9bf4412	0.19137068546709252
176	0xbff03a6a53f76e7f	-1.0142615585272379
177	0x3f7aa7a23c8d0fd6	0.006507524239001547
178	0x3fdd56b88b15601d	0.45841802198765597
179	0xbff67c5d834934a1	-1.4053626182897363
180	0x4003c29cffaa5e7d	2.470026013743164
181	0x3fe3a9180ea8fb56	0.6143913542108332
182	0xbfd33bd4ca2b57fc	-0.300526807242363
183	0xbf98d8943580d2f4	-0.024263683095528912
184	0x3ff8cde3385c3e2f	1.5502655221533919
185	0xbfe47f03a366270e	-0.6405046645533916
186	0xbff6a9b08d43c16f	-1.4164281385565933
187	0xbffa734494539671	-1.6531415742878404
188	0x3fd819c66dc7dd2c	0.37657318802617357
189	0xbfe78e2abca3febb	-0.7361043629061536
190	0xbfd3c2239f6c5a66	-0.30872431343724427
191	0x3fd2abe442301064	0.291741432796931
192	0xbfe19f755c0ba094	-0.5507151410829629
193	0x3fecd5ff64f6262f	0.9011227580933275
194	0xbffb74fb887d37b3	-1.716060193215054
195	0x3fec72b9401d93a5	0.8890043499237562
196	0x3ff53552628432fc	1.3255180214211455
197	0xc0021d08ec976f8e	-2.264177177783444
198	0x3ff209d9d169a422	1.1274049930746135
199	0xbffd6ba3ec68a345	-1.8387793764797646
200	0xbfc358f6b5eca99d	-0.15115245707540917
201	0xbfe06d6a6e345856	-0.5133564140730964
202	0xbfb560ee055190cf	-0.0835102808937933
203	0x3ff34a51ae19b852	1.2056443024444161
204	0xbfe88c24c66028e8	-0.7671073793910894
205	0x3fedb7fbb35c72e2	0.928708887400344
206	0x3fc66748c6539944	0.17502698596872268
207	0xbfbb446fae22ecc3	-0.10651300431611603
208	0xbff842918f2cef0e	-1.5162520973962645
209	0x3fdb4de82b30285e	0.4266300603636689
210	0xbfc98b9a684bbbcd	-0.1995728501564983
211	0x3fdbdaaa00bef704	0.43522119591567354
212	0x3fdb5a4ed15fa187	0.42738695570599144
213	0xbfbd9794c6060c5f	-0.11559419474183262
214	0xbfdee7d0b1ea9c54	-0.48289887785580743
215	0xc001196bcc752bbf	-2.1374126408822742
216	0xbfdcd8de3a69fc55	-0.4507365770768435
217	0xbfdceec9828f547d	-0.45207441091526573
218	0xbff8071bdc4c66ab	-1.5017355542571902
219	0xbfe453bc12def393	-0.6352215164730403
220	0xbfc926cbb97841c3	-0.19649645382061295
221	0x3faffdd7ba274246	0.062483540986822336
222	0xbf949c05149f7ca3	-0.0201264184796598
223	0xbfe794875dcfa43c	-0.7368809540031473
224	0x3fff2ccca151c882	1.9484373380223876
225	0xbf878a02283b19ce	-0.01149369893336152
226	0x3fffa7afd7f3f4df	1.97843918186782
227	0xbff399188221a941	-1.2248768885861667
228	0xbfd77206de05d69e	-0.36633464509882596
229	0x3fe4c207b84ef665	0.6486853217863425
230	0x3ffce9cef014c645	1.80708211690616
231	0x3ff1d5b5ca0e6ecd	1.114675320894935
232	0xbff564c22aed00d1	-1.3370992352284257
233	0xbfe6bc9fef28845f	-0.7105254813251455
234	0x3fe5e96c08ef408c	0.6847438978675355
235	0x3ff52b0688de5351	1.3230042787956402
236	0xbfd395cbaa5af68f	-0.3060177959085672
237	0x3fb2d80858dc4a7d	0.07360889596410831
238	0x3fae93676110a4e7	0.05971835193515478
239	0xbff01186d108eaa6	-1.0042789616988244
240	0xbff9d7cf4d3bf063	-1.6151879326780765
241	0xc000577f6d90d0f2	-2.042723518354358
242	0x3fb3e1a288d54a1a	0.07766166535046928
243	0xbfca92ca6a933bb8	-0.20760469631065148
244	0xbfefa2f0f3f51dce	-0.9886402859491967
245	0xbfcdcab38e7e27d0	-0.23274845559745794
246	0xbfff1811f1863e06	-1.943376487211823
247	0xbff2b6d0c69a3785	-1.1696326978594425
248	0xbff861e79b75b97d	-1.523902518525204
249	0xc0017e3bcfcce29a	-2.1866375193024625
250	0x3f93d2bdaa923214	0.019358600173790277
251	0x3fee0e80e309071e	0.9392704424173848
252	0xc0038e99da5dc6dc	-2.4446293887966544
253	0xbff1d52dfb9d780a	-1.1145458058085773
254	0xbff5fa8c9cd7a003	-1.3736692549373408
255	0x3ffa8c92fbec4307	1.6593198624361223
